task1/outputs/run_torch/best_model.pt (torch, 289643 bytes, 33 tensors)

beta_mu f4 [28]
-0.3959342 0.43281308 0.07529683 -0.03891197 0.41810328 -0.36495697 0.21214108 -0.74000746
0.25566998 -0.752992 -0.18919836 0.74571663 -0.046383493 -0.025759969 0.49202317 -1.6540166
0.7378771 0.34587732 -0.41375467 0.6600297 0.27631426 0.8133872 -0.31306583 0.018149259
-0.4010543 0.23982397 -0.06358489 0.038447846
00000000: e3b7 cabe ad99 dd3e 3935 9a3d 2862 1fbd
00000010: a211 d63e a4db babe 833b 593e 2171 3dbf
00000020: 2de7 823e 15c4 40bf 37bd 41be 49e7 3e3f
00000030: 9efc 3dbd 9206 d3bc 76ea fb3e d1b6 d3bf
00000040: 83e5 3c3f d516 b13e a7d7 d3be b5f7 283f
00000050: 1079 8d3e 253a 503f 2a4a a0be c1ad 943c
00000060: fd56 cdbe 6a94 753e cb38 82bd 7d7b 1d3d

beta_logstd f4 [28]
-2.6971712 -1.8506002 -2.0709202 0.0026313802 -1.7947228 -0.10283145 -1.0919935 -0.600518
-0.1988418 -0.91501755 -0.08694353 -0.39865124 -0.029657649 -0.0053453785 -0.09017659 -1.4417759
-0.15665859 -0.015199799 -0.75319946 -0.8776796 -0.23486237 -0.25504455 -0.24058127 -1.723835
-1.0177711 -0.068552755 -0.3111413 -2.0665991
00000000: 749e 2cc0 78e0 ecbf f589 04c0 3c73 2c3b
00000010: 7ab9 e5bf 4c99 d2bd 71c6 8bbf 8cbb 19bf
00000020: 2f9d 4bbe 973e 6abf 730f b2bd 041c ccbe
00000030: 99f4 f2bc 4928 afbb 81ae b8bd 1d8c b8bf
00000040: 1c6b 20be 9408 79bc aed1 40bf 9caf 60bf
00000050: c37f 70be 3395 82be f05a 76be a0a6 dcbf
00000060: 5346 82bf 6365 8cbd ea4d 9fbe 2943 04c0

u_pro_mu f4 [60]
0.2686135 0.9293508 -0.26845825 -0.027382271 -0.5006581 0.12281935 0.26630935 0.0556588
0.6805312 -0.96590894 -0.36495697 -0.49178934 0.6176882 -0.31059498 0.65244627 -0.09380901
-0.054262713 0.79767096 1.080465 0.31942618 0.21132718 0.3233185 -0.1964595 -0.10893481
1.4020907 -0.74000746 0.24188429 -0.07696379 -0.92121077 -9.257289e-08 -0.04545123 -0.50946385
-0.2853985 -0.09995713 -0.6925463 0.09510623 0.035119697 -0.99952 0.29031032 -0.12692994
0.285039 0.31205434 1.6109196 -0.74169606 0.028981643 -0.50906825 -0.8141857 -0.79254
-0.37049195 0.6458035 -0.20240262 0.16791318 -0.22911623 0.0351056 -0.14027011 -0.346421
0.23982397 0.015512699 0.4859082 0.39502075
00000000: b587 893e efe9 6d3f 5c73 89be c950 e0bc
00000010: 212b 00bf b688 fb3d b359 883e 7bfa 633d
00000020: 4b37 2e3f cf45 77bf a4db babe d0cb fbbe
00000030: d020 1e3f 4e06 9fbe b806 273f f01e c0bd
00000040: 9442 5ebd 2a34 4c3f ad4c 8a3f d48b a33e
00000050: 2766 583e 018a a53e ae2c 49be 3719 dfbd
00000060: b577 b33f 2171 3dbf 84b0 773e 319f 9dbd
00000070: 78d4 6bbf 7ccc c6b3 122b 3abd 396c 02bf
00000080: c11f 92be 53b6 ccbd b74a 31bf 0ec7 c23d
00000090: acd9 0f3d 8be0 7fbf 8ea3 943e ecf9 01be
000000a0: a2f0 913e 96c5 9f3e 9d32 ce3f cbdf 3dbf
000000b0: e96a ed3c 4c52 02bf 796e 50bf e7e3 4abf
000000c0: 1fb1 bdbe 6153 253f a242 4fbe 6ff1 2b3e
000000d0: 729d 6abe e4ca 0f3d f8a2 0fbe 185e b1be
000000e0: 6a94 753e fa28 7e3c f6c8 f83e 2940 ca3e

u_pro_logstd f4 [60]
-1.2257848 -0.4362646 -0.45878634 -0.31920448 -0.20215096 0.02517757 -0.8296034 -0.7954117
-0.7917552 -1.4613838 -0.11233282 -1.2957394 -0.2664623 -0.37542367 -1.2111362 -0.04441212
-0.062125858 -1.2090149 -0.47828647 -1.2118189 -0.072565116 -0.86093396 -0.04834478 -1.4614342
-0.9187949 -0.73775 -0.25245363 -0.07285211 -1.6633347 -2.3643338e-08 -0.021505877 -0.76695997
-1.23052 -0.028249376 -0.71840775 -0.4585927 -0.7898996 -0.6788836 -0.9681637 -0.10008145
-0.69143605 -0.37522203 -1.0912368 -1.1316391 -0.9847214 -1.0802937 -0.3588362 -1.5962136
-1.5055715 -1.1297442 -1.3917341 -1.1374067 -0.57991946 -0.07948736 -0.13950336 -0.4640798
-0.09601512 -1.2838728 -0.9938728 -0.26228958
00000000: 84e6 9cbf 135e dfbe 0be6 eabe c56e a3be
00000010: a900 4fbe 3141 ce3c e360 54bf 1aa0 4bbf
00000020: 78b0 4abf a00e bbbf c00e e6bd cada a5bf
00000030: bf6d 88be 8837 c0be 8306 9bbf 7ce9 35bd
00000040: af77 7ebd 00c1 9abf f7e1 f4be e21c 9bbf
00000050: 059d 94bd 2b66 5cbf 2d05 46bd 4710 bbbf
00000060: 2436 6bbf 2fdd 3cbf 9a41 81be 7d33 95bd
00000070: 27e8 d4bf 4018 cbb2 182d b0bc 7d57 44bf
00000080: ae81 9dbf 3c6b e7bc 92e9 37bf aacc eabe
00000090: dc36 4abf 51cb 2dbf 94d9 77bf 81f7 ccbd
000000a0: f401 31bf 1a1d c0be a6ad 8bbf 8dd9 90bf
000000b0: b416 7cbf 1047 8abf 61b9 b7be ba50 ccbf
000000c0: 91b6 c0bf 759b 90bf 5824 b2bf 8b96 91bf
000000d0: 9a75 14bf 45ca a2bd f8d9 0ebe de9b edbe
000000e0: 93a3 c4bd f255 a4bf 736e 7ebf d24a 86be

v_celeb_mu f4 [408]
-0.6606879 -0.45346215 -0.06565371 0.022196677 -1.2216169 -0.14307886 -0.19184852 0.49202317
-0.53797656 -0.45495707 0.2688989 0.38933054 0.23982397 0.23711702 1.4663731 0.47765565
0.39492217 -0.019823506 0.51357836 0.05785741 -0.13464504 1.4020907 -0.74000746 -0.48844326
-0.01246349 -0.21522646 0.30485392 0.39235085 -0.07391407 -0.05856254 -0.5463604 -0.007912351
-0.0017424802 0.014812399 0.91366404 -0.09240356 -0.03024565 -0.18919836 0.32324883 -0.14027011
0.0030693144 0.15518665 0.4574529 0.30142877 0.06597263 -0.23499425 -0.23841731 -0.06279139
0.7041764 0.287242 -0.381596 -0.03891197 0.24088958 -0.12867989 0.68747586 -0.53793424
0.029980648 0.004794296 -0.12896492 -0.0038564904 0.22060674 0.17716822 -0.93826276 3.9505812e-05
-0.3325162 -0.0087354155 -0.016731136 -0.116434716 0.3987485 0.44520324 -0.29433098 -0.1440717
0.049968496 0.18093055 0.021114303 -0.5764677 -1.1084262 -0.26340488 -0.30580622 -0.09950104
0.040459592 -0.06767651 -0.18185538 0.74571663 -0.43215108 0.54396814 -0.31634855 0.44478586
-0.1307034 -0.18735805 -0.33507842 0.60384387 0.13418464 0.5053833 -0.18795261 -0.15335977
-0.18245354 0.7876078 -0.050212335 -0.064880565 -0.21198311 -0.15990439 -0.15027447 -9.257289e-08
0.6202333 0.5259761 -2.3818522e-05 -0.054265633 -0.10400888 -0.056231238 0.12867872 -0.12766282
1.080465 0.9293508 -0.37799838 -0.51434034 0.32704163 0.55577713 -0.12062477 0.44381016
0.28165206 0.08338242 0.19747508 -0.13050477 -0.22651535 0.40134722 0.27808294 -0.023898646
-0.066030614 0.18311578 -0.046383493 0.32611078 0.3264646 -0.735915 -0.051924605 0.40761214
-0.48581755 0.9856683 -0.43408114 0.012314373 -0.810822 0.37192944 0.43412513 -0.8632597
0.33227628 -0.0050397064 0.060914494 0.042349145 1.1740108 0.873643 0.046945848 0.32308286
0.62794334 -0.24691664 0.46091035 -0.14083867 -0.24382696 -0.34621033 0.47050226 -0.21312737
-0.1157916 -0.09609525 -1.857395 0.30623397 0.01780487 0.4286841 -1.0027596 0.4805911
0.38852757 0.68844795 -0.046187274 -0.50946385 -1.6429142 0.044130303 -0.40744534 0.42439702
1.5162077 0.1335243 -0.7877439 -0.5708473 0.23779184 0.05369788 -0.18190631 -0.6275473
-0.04028021 -0.1742151 0.19477227 0.32867366 0.56579137 0.6176882 -0.14674652 -0.08782994
-0.07713533 -0.32824758 -0.39220756 0.24188429 0.27591735 -0.2850246 -1.5863156 0.13260531
-0.04936883 0.08333387 0.7566253 0.38301498 -0.83068055 -0.15441109 0.1273413 -0.050030645
0.5577098 -0.02801975 0.1155813 0.33039036 0.75061566 0.56291306 -0.12396344 -0.5006581
0.22756383 -0.22979459 -0.039769724 -0.14558181 0.002070322 0.80629796 0.29094043 -0.3551889
-0.03820207 0.4836542 0.1887976 -0.035643443 0.38181856 0.9420916 -0.57350767 0.2900734
-0.00220562 -0.17604382 0.014814369 -0.10132654 -0.6994784 -0.32155094 0.34587732 -0.20144823
-0.04443936 -0.16265765 -0.003947312 -0.033082027 -0.105413385 -0.9193142 0.70046884 -0.122330576
-0.3921679 0.31218293 0.24638116 -0.17466497 0.01709385 -0.09858749 -0.07696379 -0.081777506
00000000: d822 29bf 312c e8be 7475 86bd ced5 b53c
00000010: f15d 9cbf 4483 12be f073 44be 76ea fb3e
00000020: d5b8 09bf 22f0 e8be 1ead 893e 5556 c73e
00000030: 6a94 753e cece 723e 1db2 bb3f 488f f43e
00000040: 3d33 ca3e e864 a2bc df79 033f e4fb 6c3d
00000050: 64e0 09be b577 b33f 2171 3dbf 3c15 fabe
00000060: aa33 4cbc 5364 5cbe d015 9c3e 36e2 c83e
00000070: 4360 97bd 46df 6fbd 46de 0bbf cea2 01bc
00000080: ef63 e4ba b4af 723c e3e5 693f 143e bdbd
00000090: bac5 f7bc 37bd 41be df80 a53e f8a2 0fbe
000000a0: 8d26 493b 40e9 1e3e 4437 ea3e df54 9a3e
000000b0: a91c 873d 55a2 70be ab23 74be c698 80bd
000000c0: e844 343f 6211 933e 8d60 c3be 2862 1fbd
000000d0: c2ab 763e a9c4 03be 6bfe 2f3f 0fb6 09bf
000000e0: fa99 f53c 7819 9d3b 610f 04be 2cbd 7cbb
000000f0: bce6 613e 966b 353e fd31 70bf 0bb3 2538
00000100: 903f aabe fd1e 0fbc bc0f 89bc 5375 eebd
00000110: c328 cc3e aef1 e33e 8db2 96be 8887 13be
00000120: c4ab 4c3d dc45 393e e7f7 ac3c 6393 13bf
00000130: e9e0 8dbf 01dd 86be a292 9cbe 34c7 cbbd
00000140: f5b8 253d fb99 8abd 4c38 3abe 49e7 3e3f
00000150: e842 ddbe 7f41 0b3f 70f8 a1be f9ba e33e
00000160: 1dd7 05be cada 3fbe 668f abbe 8395 1a3f
00000170: b367 093e cd60 013f a676 40be 580a 1dbe
00000180: 1ad5 3abe aaa0 493f 73ab 4dbd 1ae0 84bd
00000190: 1a12 59be fabd 23be 8de1 19be 7ccc c6b3
000001a0: 9cc7 1e3f 5fa6 063f e3cd c7b7 a445 5ebd
000001b0: 9c02 d5bd ba52 66bd 5bc4 033e 0bba 02be
000001c0: ad4c 8a3f efe9 6d3f 0189 c1be cfab 03bf
000001d0: 0072 a73e 6947 0e3f 1f0a f7bd 163b e33e
000001e0: b334 903e 67c4 aa3d e836 4a3e 0ba3 05be
000001f0: a4f3 67be 627d cd3e e360 8e3e 18c7 c3bc
00000200: 0f3b 87bd b482 3b3e 9efc 3dbd fef7 a63e
00000210: 5e26 a73e ed64 3cbf e5ae 54bd 8ab2 d03e
00000220: 14bd f8be c254 7c3f e23f debe 39c2 493c
00000230: 0892 4fbf 896d be3e a645 de3e 96fe 5cbf
00000240: 1e20 aa3e 1f24 a5bb 7a81 793d 4c76 2d3d
00000250: fc45 963f 11a7 5f3f 4a4a 403d 1e6b a53e
00000260: e5c0 203f b7d7 7cbe 71fc eb3e 0338 10be
00000270: c6ad 79be 7b42 b1be ace5 f03e 103e 5abe
00000280: 2524 edbd 96cd c4bd 1fbf edbf b3ca 9c3e
00000290: 85db 913c 7b7c db3e 6d5a 80bf 0910 f63e
000002a0: 16ed c63e 203e 303f de2e 3dbd 396c 02bf
000002b0: 034b d2bf fac1 343d ad9c d0be 914a d93e
000002c0: 1813 c23f 98ba 083e 96a9 49bf 0c23 12bf
000002d0: b47f 733e 4ff2 5b3d a645 3abe f1a6 20bf
000002e0: ddfc 24bd 7165 32be 6272 473e ea47 a83e
000002f0: b4d7 103f d020 1e3f b844 16be 2fe0 b3bd
00000300: 21f9 9dbd 1110 a8be 6ecf c8be 84b0 773e
00000310: 0a45 8d3e bfee 91be 640c cbbf b0c9 073e
00000320: f836 4abd f3aa aa3d 32b2 413f 8a1a c43e
00000330: 7ba7 54bf f11d 1ebe c265 023e efec 4cbd
00000340: 12c6 0e3f ad89 e5bc e3b5 ec3d ed28 a93e
00000350: 5928 403f 121b 103f 8be0 fdbd 212b 00bf
00000360: 7e06 693e 464f 6bbe 94e5 22bd 6613 15be
00000370: 3dae 073b 8b69 4e3f 25f6 943e 52db b5be
00000380: c679 1cbd 86a1 f73e 2854 413e dcfe 11bd
00000390: b97d c33e ea2c 713f 66d1 12bf 8084 943e
000003a0: 2a8c 10bb d544 34be f8b7 723c 4a84 cfbd
000003b0: 0411 33bf 53a2 a4be d516 b13e 7248 4ebe
000003c0: 0c06 36bd ba8f 26be 7458 81bb 0581 07bd
000003d0: f9e2 d7bd 2d58 6bbf ed51 333f 7488 fabd
000003e0: 3bca c8be 71d6 9f3e 584b 7c3e 60db 32be
000003f0: 6708 8c3c 3de8 c9bd 319f 9dbd f77a a7bd

v_celeb_logstd f4 [408]
-0.570104 -0.2322142 -0.033061743 -0.019838808 -0.9880954 -0.08535163 -0.06754587 -0.087139174
-0.14657208 -0.31785518 -0.012920421 -0.17269447 -0.11673383 -0.10359775 -0.77890164 -0.27996185
-0.107520595 -0.020785341 -0.06031663 -0.02068809 -0.13693382 -0.925479 -0.59928167 -0.6699565
-0.122683786 -0.1243292 -0.14265929 -0.24341013 -0.0039874376 -0.0018776271 -0.17255889 -0.013907899
-0.0005259525 -0.015371798 -1.0157452 -0.056565776 -0.1769667 -0.09931078 0.0038332208 -0.048784785
-0.004411887 -0.017206304 -0.13822745 0.042139888 -0.09927771 -0.2399048 -0.16976249 -0.5768466
-0.15028624 -0.15616079 -0.8257929 -0.009039741 -0.07619525 -0.16724722 0.12730214 -0.25771964
-0.39337438 -0.026977519 -0.21163271 0.0016410884 -0.23924868 -0.14374436 -0.45539317 -3.8249276e-05
-0.16569133 0.0010399697 -0.010195957 -0.09139003 -0.051344138 -0.7023158 -0.17791365 -0.07287403
-0.01162983 0.03883742 -0.8407368 -0.22280882 -0.6391831 -0.16496518 -0.15181576 -0.043867245
0.0009692756 -0.03429944 -0.32908916 -0.42266795 -0.22880508 -0.12677926 -0.31488883 -0.048274264
-0.052876897 -0.08935985 -0.24616468 -0.31469443 -1.018333 -0.39087877 -0.047997966 -0.1451484
-0.0915209 -0.18503037 -0.030844845 -0.020496741 -0.09971867 -0.062345725 -0.04649777 -1.1040763e-08
-0.048638824 0.018709926 5.4052226e-08 -0.058980588 -0.04087185 -0.04564813 -0.041625906 -0.85280496
-0.43026096 -0.53322786 -0.13229172 -0.24767135 -0.21150227 -0.31110457 -0.09295475 -0.04918976
-0.14028046 -0.42968377 -0.023807634 -0.060737617 -0.122243665 -0.041891564 -0.23935641 -0.012310347
-0.046365682 -0.58461004 -0.014874763 -0.08382206 0.034654275 -0.44651487 -0.05853042 -0.33396018
-0.14853026 -1.0196276 -0.0968634 0.0017783566 -0.2839619 -0.27217254 -0.2844731 -0.9751779
-0.1404636 -0.0060564913 -0.13691369 -0.115396485 -0.5656949 -0.42244062 -0.11021419 -0.09267423
-0.11980649 -0.10713596 -0.10247514 -0.10819587 -0.11951514 -0.15355724 -0.06089202 -0.23311944
-0.41616938 -0.009005013 -0.8633276 -0.010317318 -0.06672227 -0.076323375 -0.4198134 -0.37356812
-0.06406143 -0.42558396 -0.010680852 -0.74875945 -0.8055936 0.0075342245 -0.23538074 -0.11763983
-0.5292193 -0.003025894 -0.6743725 -0.77463204 -0.30474088 -0.05228188 -0.14198743 -0.25913152
-0.02749597 -0.2005467 -0.22166099 -0.1411177 -0.3297197 -0.2358369 -0.08481204 -0.020531747
-0.025669 -0.5210957 -0.11566238 -0.09102413 -0.19064523 -0.7846617 -0.86462855 -0.031588636
-0.0068013896 -0.014036846 -0.43459547 -0.21109898 -0.8582138 -0.07014417 -0.8235069 -0.0404983
-0.07341111 -0.009080959 -0.09398703 -0.16826656 -0.18936844 0.03829809 -0.10755817 -0.24425149
-0.63440526 -0.08936765 -0.023639135 -0.05384334 -0.0015216193 0.0061774347 -0.0744455 -0.09989069
-0.12446805 -0.15107937 -0.11857161 -0.44627962 -0.15444115 -0.4795561 -0.4377329 -0.056720257
-0.062225465 -0.1317358 -0.118210085 -0.11330585 -0.9569662 -0.22423963 -0.024507735 -0.7269219
-0.03530984 -0.076186016 -0.0075517907 -0.032095104 -0.08988314 -0.2193324 0.058033288 -0.13550274
-0.23313834 -0.09327503 -0.039885044 -0.11640585 -0.023433832 -0.042547327 -0.07464603 -0.1742374
00000000: 56f2 11bf 8fc9 6dbe c06b 07bd ff84 a2bc
00000010: d2f3 7cbf d6cc aebd 7d55 8abd 0676 b2bd
00000020: fe16 16be eabd a2be 2cb0 53bc d2d6 30be
00000030: 2512 efbd 0f2b d4bd 1966 47bf 2957 8fbe
00000040: c233 dcbd 0546 aabc 920e 77bd 127a a9bc
00000050: 6138 0cbe 31ec 6cbf 866a 19bf 4582 2bbf
00000060: a341 fbbd 4fa0 febd 4715 12be 8140 79be
00000070: 0da9 82bb b61a f6ba 47b3 30be f5dd 63bc
00000080: 13e0 09ba fed9 7bbc f003 82bf 84b1 67bd
00000090: c236 35be 7363 cbbd c636 7b3b 8ed2 47bd
000000a0: 9791 90bb 3cf4 8cbc 7f8b 0dbe e09a 2c3d
000000b0: 1d52 cbbd 9ba9 75be 38d6 2dbe 38ac 13bf
000000c0: a3e4 19be 9de8 1fbe 2a67 53bf 6c1b 14bc
000000d0: 410c 9cbd db42 2bbe 7e5b 023e d4f3 83be
000000e0: 5e68 c9be f5ff dcbc 3fb6 58be ca19 d73a
000000f0: 9bfd 74be b931 13be 4b29 e9be d96d 20b8
00000100: fdaa 29be 984f 883a f10c 27bc b22a bbbd
00000110: 3b4e 52bd f8ca 33bf ff2e 36be fb3e 95bd
00000120: 0b8b 3ebc fd13 1f3d 873a 57bf ff27 64be
00000130: 81a1 23bf a2ec 28be 9775 1bbe 24ae 33bd
00000140: fc16 7e3a 927d 0cbd 607e a8be ef67 d8be
00000150: e14b 6abe 6cd2 01be 1c39 a1be 3cbb 45bd
00000160: 7295 58bd 4c02 b7bd 9812 7cbe a11f a1be
00000170: bc58 82bf 4321 c8be 8499 44bd c8a1 14be
00000180: 4f6f bbbd 9a78 3dbe 54ae fcbc c8e8 a7bc
00000190: 4d39 ccbd 3b5e 7fbd 7274 3ebd caad 3db2
000001a0: 8139 47bd 8f45 993c 0d27 6833 a195 71bd
000001b0: 3e69 27bd 89f9 3abd ed7f 2abd 6d51 5abf
000001c0: 2a4b dcbe 9f81 08bf 7b77 07be 8f9d 7dbe
000001d0: 0d94 58be 1949 9fbe 0f5f bebd 347b 49bd
000001e0: aea5 0fbe 83ff dbbe 3a08 c3bc 02c8 78bd
000001f0: e35a fabd 7d96 2bbd d919 75be 56b1 49bc
00000200: f1e9 3dbd 01a9 15bf 47b5 73bc e6aa abbd
00000210: a4f1 0d3d 999d e4be 98bd 6fbd d4fc aabe
00000220: 5118 18be 2883 82bf 5160 c6bd bf17 e93a
00000230: 7463 91be 335a 8bbe 75a6 91be 42a5 79bf
00000240: b1d5 0fbe 8875 c6bb 1a33 0cbe fe54 ecbd
00000250: 62d1 10bf 234a d8be fab7 e1bd fdcb bdbd
00000260: 1b5d f5bd 196a dbbd 7cde d1bd cc95 ddbd
00000270: 5bc4 f4bd 1c3e 1dbe e969 79bd ddb6 6ebe
00000280: 2714 d5be c389 13bc 0a03 5dbf f809 29bc
00000290: afa5 88bd 6e4f 9cbd c8f1 d6be 5244 bfbe
000002a0: a432 83bd 24e6 d9be befe 2ebc b3ae 3fbf
000002b0: 623b 4ebf a8e1 f63b a607 71be 27ed f0bd
000002c0: eb7a 07bf 144e 46bb ada3 2cbf 494e 46bf
000002d0: ff06 9cbe 8625 56bd 2765 11be e3ac 84be
000002e0: 3a3f e1bc 1d5c 4dbe 19fb 62be 2981 10be
000002f0: 05d1 a8be 3a7f 71be efb1 adbd 3232 a8bc
00000300: cb47 d2bc 8766 05bf 66e0 ecbd dc6a babd
00000310: 8138 43be 97df 48bf 4c58 5dbf 1663 01bd
00000320: 31de debb cdfa 65bc 4c83 debe 552a 58be
00000330: e6b3 5bbf bfa7 8fbd 59d1 52bf 8ce1 25bd
00000340: 9058 96bd 4dc8 14bc 467c c0bd 124e 2cbe
00000350: cde9 41be 75de 1c3d 7547 dcbd 101d 7abe
00000360: 6268 22bf 6306 b7bd dca6 c1bc d68a 5cbd
00000370: 1271 c7ba 146c ca3b e276 98bd 7d93 ccbd
00000380: 1be9 febd 8db4 1abe acd5 f2bd c37e e4be
00000390: d225 1ebe 6188 f5be 871e e0be 8053 68bd
000003a0: 21e0 7ebd c0e5 06be 2118 f2bd e60c e8bd
000003b0: bdfb 74bf 139f 65be 72c4 c8bc 8e17 3abf
000003c0: 0da1 10bd 6a07 9cbd 0375 f7bb 2876 03bd
000003d0: a714 b8bd ac98 60be 50b4 6d3d 3bc1 0abe
000003e0: d1bb 6ebe fb06 bfbd 805e 23bd 3166 eebd
000003f0: 4ff8 bfbc 1b46 2ebd 05e0 98bd 4a6b 32be

w_season_mu f4 [34]
0.0006580992 -1.4353913e-05 -6.8173114e-07 1.986831e-08 -3.1229898e-05 0.0022962259 -3.6166458e-07 -2.6747963e-07
-3.075605e-08 -1.2256041e-05 -7.250134e-07 6.056912e-07 -4.889355e-07 -6.662111e-05 -2.2062417e-07 -0.00016033692
-4.9234927e-08 -0.00011851639 2.5423683e-06 -1.7039983e-07 -3.2758842e-07 1.1430465e-06 -8.204701e-08 -3.0197893e-06
-2.8297472e-06 1.2332948e-09 -2.831818e-07 3.4517386e-06 -5.3253725e-06 1.8622045e-07 -1.2528098e-05 5.3816625e-06
1.7063873e-06 1.5233383e-06
00000000: 4a84 2c3a 96d1 70b7 3500 37b5 e0aa aa32
00000010: d9fc 02b8 477c 163b cd2a c2b4 1f9a 8fb4
00000020: a218 04b3 4c9f 4db7 8b9e 42b5 c896 2235
00000030: 643f 03b5 f0b6 8bb8 b6e4 6cb4 1d20 28b9
00000040: 6076 53b3 018c f8b8 8e9d 2a36 26f7 36b4
00000050: 69df afb4 c76a 9935 d231 b0b3 96a7 4ab6
00000060: b0e6 3db6 b480 a930 3608 98b4 6ba4 6736
00000070: 9ab0 b2b6 e3f3 4734 c52f 52b7 2194 b436
00000080: 0507 e535 8175 cc35

w_season_logstd f4 [34]
-2.8528834e-08 5.4158292e-08 -2.9269978e-08 -4.44127e-08 -3.322713e-08 4.9013064e-08 3.0660598e-08 -6.643515e-08
4.784896e-08 3.5015766e-08 4.3412385e-08 2.0201425e-08 7.647729e-08 2.7476698e-08 1.7130238e-09 -3.6774406e-08
8.950488e-08 6.358826e-09 5.3148522e-08 -1.8422114e-08 -6.226158e-08 1.3204402e-07 3.3187753e-08 -7.655174e-08
-8.8042505e-08 -3.6597914e-08 1.2981001e-08 4.6079954e-08 1.0159809e-08 -2.3928406e-08 -6.6220406e-07 2.6595494e-08
-7.444171e-08 1.06433106e-07
00000000: 920f f5b2 ac9b 6833 5d6d fbb2 48c0 3eb3
00000010: 9eb5 0eb3 6f82 5233 afaf 0333 1cab 8eb3
00000020: 7d82 4d33 3e64 1633 6c74 3a33 6787 ad32
00000030: d63b a433 e605 ec32 ab6f eb30 e3f1 1db3
00000040: d435 c033 d37c da31 6b45 6433 a83e 9eb2
00000050: aab4 85b3 fcc7 0d34 528a 0e33 c464 a4b3
00000060: e111 bdb3 d52f 1db3 0c03 5f32 72e9 4533
00000070: 508b 2e32 1f8b cdb2 51c2 31b5 1c74 e432
00000080: c3dc 9fb3 3890 e433

delta_mu f4 [34, 16, 11]
0.0 -9.173223e-08 0.00058359373 0.60012627 0.0 0.0 0.0 0.0
0.0 0.0 0.0 0.0 0.20686296 0.12023129 0.0040409304 0.0
0.0 0.0 0.0 0.0 0.0 0.0 0.0 0.5849603
-0.50855136 0.0 0.0 0.0 0.0 0.0 0.0 0.0
0.0 0.0 0.27663466 0.3493457 -1.1360546 0.0 0.0 0.0
0.0 0.0 0.0 0.0 0.0 -6.798283e-11 0.004169521 0.5468942
0.0 0.0 0.0 0.0 0.0 0.0 0.0 0.0
-1.1287564 -6.247864e-11 -1.2521078e-18 0.0 0.0 0.0 0.0 0.0
0.0 0.0 0.0 -1.1084887e-10 0.0 0.0 0.0 0.0
0.0 0.0 0.0 0.0 0.0 0.0 0.0 0.0
0.0 0.0 0.0 0.0 0.0 0.0 0.0 0.0
0.0 0.0 0.0 0.0 0.0 0.0 0.0 0.0
0.0 0.0 0.0 0.0 0.0 0.0 0.0 0.0
0.0 0.0 0.0 0.0 0.0 0.0 0.0 0.0
-6.897426e-05 0.0 0.0 0.0 0.0 0.0 0.0 0.0
0.0 0.0 0.0 0.0 0.0 0.0 0.0 0.0
0.0 0.0 0.0 0.0 0.0 0.0 -3.7386144e-06 0.0
0.0 0.0 0.0 0.0 0.0 0.0 0.0 0.0
0.0 0.0 0.0 0.0 0.0 0.0 0.0 0.0
0.0 0.0 0.0 0.0 0.0 1.9888322e-20 0.0 0.0
0.0 0.0 0.0 0.0 0.0 0.0 0.0 0.0
0.0 0.0 0.0 0.0 0.0 0.0 0.0 0.0
0.005972106 -0.6633208 8.399032e-07 -4.4574597e-09 -2.9869845e-10 7.540772e-09 -6.6255034e-06 0.0
0.0 0.0 0.0 0.06310032 0.055620782 -1.870633e-08 0.057260655 -0.6992278
0.0 -4.6827623e-08 0.0 0.0 0.0 0.0 0.07849179 0.0017441079
0.029815821 0.245244 0.35496143 -0.5889473 2.1744547e-06 0.0 0.0 0.0
0.0 0.059146594 0.33025852 0.016010493 0.1422949 0.29202434 0.3550513 -1.3545824
0.0 0.0 0.0 0.0 -2.0808333e-09 -2.2284716e-07 8.7463875e-10 3.523521e-06
7.848493e-10 -8.693247e-08 0.04963269 0.0 0.0 0.0 0.0 -1.470098e-07
-8.470601e-09 0.03539024 7.102817e-09 0.02741975 0.23025452 1.2036176 0.0 0.0
0.0 0.0 0.13795623 0.14385538 -0.9855767 -1.8776237e-07 3.261271e-09 4.8279367e-09
2.9725287e-08 0.0 0.0 0.0 0.0 0.20071982 0.095462024 0.7993377
00000000: 0000 0000 54fe c4b3 50fc 183a e0a1 193f
00000010: 0000 0000 0000 0000 0000 0000 0000 0000
00000020: 0000 0000 0000 0000 0000 0000 0000 0000
00000030: e2d3 533e d33b f63d c869 843b 0000 0000
00000040: 0000 0000 0000 0000 0000 0000 0000 0000
00000050: 0000 0000 0000 0000 0000 0000 f5bf 153f
00000060: 6c30 02bf 0000 0000 0000 0000 0000 0000
00000070: 0000 0000 0000 0000 0000 0000 0000 0000
00000080: 0000 0000 0000 0000 0fa3 8d3e 71dd b23e
00000090: 3d6a 91bf 0000 0000 0000 0000 0000 0000
000000a0: 0000 0000 0000 0000 0000 0000 0000 0000
000000b0: 0000 0000 ee7e 95ae 7aa0 883b 4201 0c3f
000000c0: 0000 0000 0000 0000 0000 0000 0000 0000
000000d0: 0000 0000 0000 0000 0000 0000 0000 0000
000000e0: 177b 90bf 5964 89ae 4cc7 b8a1 0000 0000
000000f0: 0000 0000 0000 0000 0000 0000 0000 0000
00000100: 0000 0000 0000 0000 0000 0000 5ec2 f3ae
00000110: 0000 0000 0000 0000 0000 0000 0000 0000
00000120: 0000 0000 0000 0000 0000 0000 0000 0000
00000130: 0000 0000 0000 0000 0000 0000 0000 0000
00000140: 0000 0000 0000 0000 0000 0000 0000 0000
00000150: 0000 0000 0000 0000 0000 0000 0000 0000
00000160: 0000 0000 0000 0000 0000 0000 0000 0000
00000170: 0000 0000 0000 0000 0000 0000 0000 0000
00000180: 0000 0000 0000 0000 0000 0000 0000 0000
00000190: 0000 0000 0000 0000 0000 0000 0000 0000
000001a0: 0000 0000 0000 0000 0000 0000 0000 0000
000001b0: 0000 0000 0000 0000 0000 0000 0000 0000
000001c0: 46a6 90b8 0000 0000 0000 0000 0000 0000
000001d0: 0000 0000 0000 0000 0000 0000 0000 0000
000001e0: 0000 0000 0000 0000 0000 0000 0000 0000
000001f0: 0000 0000 0000 0000 0000 0000 0000 0000
00000200: 0000 0000 0000 0000 0000 0000 0000 0000
00000210: 0000 0000 0000 0000 e8e4 7ab6 0000 0000
00000220: 0000 0000 0000 0000 0000 0000 0000 0000
00000230: 0000 0000 0000 0000 0000 0000 0000 0000
00000240: 0000 0000 0000 0000 0000 0000 0000 0000
00000250: 0000 0000 0000 0000 0000 0000 0000 0000
00000260: 0000 0000 0000 0000 0000 0000 0000 0000
00000270: 0000 0000 03d7 bb1e 0000 0000 0000 0000
00000280: 0000 0000 0000 0000 0000 0000 0000 0000
00000290: 0000 0000 0000 0000 0000 0000 0000 0000
000002a0: 0000 0000 0000 0000 0000 0000 0000 0000
000002b0: 0000 0000 0000 0000 0000 0000 0000 0000
000002c0: a8b1 c33b 64cf 29bf b575 6135 3b28 99b1
000002d0: 1236 a4af aa8c 0132 a450 deb6 0000 0000
000002e0: 0000 0000 0000 0000 0000 0000 be3a 813d
000002f0: 9ed2 633d a8af a0b2 268a 6a3d 9800 33bf
00000300: 0000 0000 841f 49b3 0000 0000 0000 0000
00000310: 0000 0000 0000 0000 4ec0 a03d 8d9a e43a
00000320: 4f40 f43c 3e21 7b3e 81bd b53e 40c5 16bf
00000330: d9ec 1136 0000 0000 0000 0000 0000 0000
00000340: 0000 0000 b343 723d a517 a93e 7028 833c
00000350: c1b5 113e 3784 953e 49c9 b53e f562 adbf
00000360: 0000 0000 0000 0000 0000 0000 0000 0000
00000370: 68fe 0eb1 c347 6fb4 3b6b 7030 a175 6c36
00000380: dcbc 5730 a1af bab3 a64b 4b3d 0000 0000
00000390: 0000 0000 0000 0000 0000 0000 bfd9 1db4
000003a0: 1986 11b2 5bf5 103d 0a0d f431 629f e03c
000003b0: d7c7 6b3e 2410 9a3f 0000 0000 0000 0000
000003c0: 0000 0000 0000 0000 6644 0d3e d34e 133e
000003d0: c14e 7cbf ba9b 49b4 e31c 6031 fbe2 a531
000003e0: 9956 ff32 0000 0000 0000 0000 0000 0000
000003f0: 0000 0000 7f89 4d3e 9881 c33d 65a1 4c3f

delta_logstd f4 [34, 16, 11]
1.7634637e-08 -3.1278287e-08 -0.0018364098 -0.28460342 1.7634637e-08 1.7634637e-08 1.7634637e-08 1.7634637e-08
1.7634637e-08 1.7634637e-08 1.7634637e-08 1.7634637e-08 -0.12264711 -0.05564688 -0.0013665379 1.7634637e-08
1.7634637e-08 1.7634637e-08 1.7634637e-08 1.7634637e-08 1.7634637e-08 1.7634637e-08 1.7634637e-08 -0.30164218
-0.14722048 1.7634637e-08 1.7634637e-08 1.7634637e-08 1.7634637e-08 1.7634637e-08 1.7634637e-08 1.7634637e-08
1.7634637e-08 1.7634637e-08 -0.15844072 -0.10865387 -0.41693544 1.7634637e-08 1.7634637e-08 1.7634637e-08
1.7634637e-08 1.7634637e-08 1.7634637e-08 1.7634637e-08 1.7634637e-08 1.0765445e-08 -0.007918908 -0.25608066
1.7634637e-08 1.7634637e-08 1.7634637e-08 1.7634637e-08 1.7634637e-08 1.7634637e-08 1.7634637e-08 1.7634637e-08
-0.36578527 1.7927858e-08 1.9648903e-08 1.7634637e-08 1.7634637e-08 1.7634637e-08 1.7634637e-08 1.7634637e-08
1.7634637e-08 1.7634637e-08 1.7634637e-08 1.87228e-08 1.7634637e-08 1.7634637e-08 1.7634637e-08 1.7634637e-08
1.7634637e-08 1.7634637e-08 1.7634637e-08 1.7634637e-08 1.7634637e-08 1.7634637e-08 1.7634637e-08 1.7634637e-08
1.7634637e-08 1.7634637e-08 1.7634637e-08 1.7634637e-08 1.7634637e-08 1.7634637e-08 1.7634637e-08 1.7634637e-08
1.7634637e-08 1.7634637e-08 1.7634637e-08 1.7634637e-08 1.7634637e-08 1.7634637e-08 1.7634637e-08 1.7634637e-08
1.7634637e-08 1.7634637e-08 1.7634637e-08 1.7634637e-08 1.7634637e-08 1.7634637e-08 1.7634637e-08 1.7634637e-08
1.7634637e-08 1.7634637e-08 1.7634637e-08 1.7634637e-08 1.7634637e-08 1.7634637e-08 1.7634637e-08 1.7634637e-08
1.1554494e-08 1.7634637e-08 1.7634637e-08 1.7634637e-08 1.7634637e-08 1.7634637e-08 1.7634637e-08 1.7634637e-08
1.7634637e-08 1.7634637e-08 1.7634637e-08 1.7634637e-08 1.7634637e-08 1.7634637e-08 1.7634637e-08 1.7634637e-08
1.7634637e-08 1.7634637e-08 1.7634637e-08 1.7634637e-08 1.7634637e-08 1.7634637e-08 -3.0889318e-08 1.7634637e-08
1.7634637e-08 1.7634637e-08 1.7634637e-08 1.7634637e-08 1.7634637e-08 1.7634637e-08 1.7634637e-08 1.7634637e-08
1.7634637e-08 1.7634637e-08 1.7634637e-08 1.7634637e-08 1.7634637e-08 1.7634637e-08 1.7634637e-08 1.7634637e-08
1.7634637e-08 1.7634637e-08 1.7634637e-08 1.7634637e-08 1.7634637e-08 3.6218832e-08 1.7634637e-08 1.7634637e-08
1.7634637e-08 1.7634637e-08 1.7634637e-08 1.7634637e-08 1.7634637e-08 1.7634637e-08 1.7634637e-08 1.7634637e-08
1.7634637e-08 1.7634637e-08 1.7634637e-08 1.7634637e-08 1.7634637e-08 1.7634637e-08 1.7634637e-08 1.7634637e-08
-0.0030694797 -0.2656361 -3.3924692e-08 3.4792855e-08 2.1523409e-08 -1.09335e-08 1.343842e-05 1.7634637e-08
1.7634637e-08 1.7634637e-08 1.7634637e-08 -0.028551847 -0.04910668 1.429704e-08 -0.044825748 -0.3234965
1.7634637e-08 -2.563737e-08 1.7634637e-08 1.7634637e-08 1.7634637e-08 1.7634637e-08 -0.06295462 -0.0012635121
-0.032785375 -0.23057073 -0.19522336 -0.27103874 1.7636937e-08 1.7634637e-08 1.7634637e-08 1.7634637e-08
1.7634637e-08 -0.05354614 -0.16270372 -0.012709062 -0.12431726 -0.15754491 -0.21216439 -0.5078625
1.7634637e-08 1.7634637e-08 1.7634637e-08 1.7634637e-08 -2.7064207e-08 2.640803e-08 9.411556e-09 1.5164771e-06
-3.7822463e-08 1.3020232e-07 -0.07258288 1.7634637e-08 1.7634637e-08 1.7634637e-08 1.7634637e-08 -3.994051e-08
9.736226e-09 -0.04844435 -2.159787e-08 -0.026226804 -0.17938562 -0.69018036 1.7634637e-08 1.7634637e-08
1.7634637e-08 1.7634637e-08 -0.11629564 -0.07384245 -0.39002514 -3.0181734e-08 1.6751e-08 2.1547136e-08
-2.8374307e-08 1.7634637e-08 1.7634637e-08 1.7634637e-08 1.7634637e-08 -0.10955078 -0.08746582 -0.3750095
00000000: fa7a 9732 d756 06b3 b0b3 f0ba 8ab7 91be
00000010: fa7a 9732 fa7a 9732 fa7a 9732 fa7a 9732
00000020: fa7a 9732 fa7a 9732 fa7a 9732 fa7a 9732
00000030: 682e fbbd fced 63bd 671d b3ba fa7a 9732
00000040: fa7a 9732 fa7a 9732 fa7a 9732 fa7a 9732
00000050: fa7a 9732 fa7a 9732 fa7a 9732 d870 9abe
00000060: f7c0 16be fa7a 9732 fa7a 9732 fa7a 9732
00000070: fa7a 9732 fa7a 9732 fa7a 9732 fa7a 9732
00000080: fa7a 9732 fa7a 9732 493e 22be ec85 debd
00000090: 9078 d5be fa7a 9732 fa7a 9732 fa7a 9732
000000a0: fa7a 9732 fa7a 9732 fa7a 9732 fa7a 9732
000000b0: fa7a 9732 eef2 3832 4fbe 01bc 011d 83be
000000c0: fa7a 9732 fa7a 9732 fa7a 9732 fa7a 9732
000000d0: fa7a 9732 fa7a 9732 fa7a 9732 fa7a 9732
000000e0: 3548 bbbe c7ff 9932 65c8 a832 fa7a 9732
000000f0: fa7a 9732 fa7a 9732 fa7a 9732 fa7a 9732
00000100: fa7a 9732 fa7a 9732 fa7a 9732 dfd3 a032
00000110: fa7a 9732 fa7a 9732 fa7a 9732 fa7a 9732
00000120: fa7a 9732 fa7a 9732 fa7a 9732 fa7a 9732
00000130: fa7a 9732 fa7a 9732 fa7a 9732 fa7a 9732
00000140: fa7a 9732 fa7a 9732 fa7a 9732 fa7a 9732
00000150: fa7a 9732 fa7a 9732 fa7a 9732 fa7a 9732
00000160: fa7a 9732 fa7a 9732 fa7a 9732 fa7a 9732
00000170: fa7a 9732 fa7a 9732 fa7a 9732 fa7a 9732
00000180: fa7a 9732 fa7a 9732 fa7a 9732 fa7a 9732
00000190: fa7a 9732 fa7a 9732 fa7a 9732 fa7a 9732
000001a0: fa7a 9732 fa7a 9732 fa7a 9732 fa7a 9732
000001b0: fa7a 9732 fa7a 9732 fa7a 9732 fa7a 9732
000001c0: 3481 4632 fa7a 9732 fa7a 9732 fa7a 9732
000001d0: fa7a 9732 fa7a 9732 fa7a 9732 fa7a 9732
000001e0: fa7a 9732 fa7a 9732 fa7a 9732 fa7a 9732
000001f0: fa7a 9732 fa7a 9732 fa7a 9732 fa7a 9732
00000200: fa7a 9732 fa7a 9732 fa7a 9732 fa7a 9732
00000210: fa7a 9732 fa7a 9732 2aab 04b3 fa7a 9732
00000220: fa7a 9732 fa7a 9732 fa7a 9732 fa7a 9732
00000230: fa7a 9732 fa7a 9732 fa7a 9732 fa7a 9732
00000240: fa7a 9732 fa7a 9732 fa7a 9732 fa7a 9732
00000250: fa7a 9732 fa7a 9732 fa7a 9732 fa7a 9732
00000260: fa7a 9732 fa7a 9732 fa7a 9732 fa7a 9732
00000270: fa7a 9732 078f 1b33 fa7a 9732 fa7a 9732
00000280: fa7a 9732 fa7a 9732 fa7a 9732 fa7a 9732
00000290: fa7a 9732 fa7a 9732 fa7a 9732 fa7a 9732
000002a0: fa7a 9732 fa7a 9732 fa7a 9732 fa7a 9732
000002b0: fa7a 9732 fa7a 9732 fa7a 9732 fa7a 9732
000002c0: 5329 49bb 7401 88be 98b4 11b3 266f 1533
000002d0: 7ae2 b832 0bd6 3bb2 9375 6137 fa7a 9732
000002e0: fa7a 9732 fa7a 9732 fa7a 9732 90e5 e9bc
000002f0: 1624 49bd 0c9f 7532 349b 37bd 55a1 a5be
00000300: fa7a 9732 2c39 dcb2 fa7a 9732 fa7a 9732
00000310: fa7a 9732 fa7a 9732 5aee 80bd 6e9c a5ba
00000320: f549 06bd bc1a 6cbe a2e8 47be 97c5 8abe
00000330: 0980 9732 fa7a 9732 fa7a 9732 fa7a 9732
00000340: fa7a 9732 3353 5bbd ce9b 26be ab39 50bc
00000350: 0c9a febd 7453 21be 9f41 59be 4703 02bf
00000360: fa7a 9732 fa7a 9732 fa7a 9732 fa7a 9732
00000370: d27a e8b2 dfd7 e232 76b0 2132 c289 cb35
00000380: 3d72 22b3 becd 0b34 55a6 94bd fa7a 9732
00000390: fa7a 9732 fa7a 9732 fa7a 9732 0e8b 2bb3
000003a0: 6044 2732 956d 46bd 3886 b9b2 98d9 d6bc
000003b0: ddb0 37be a9af 30bf fa7a 9732 fa7a 9732
000003c0: fa7a 9732 fa7a 9732 692c eebd b63a 97bd
000003d0: 60b1 c7be 2ba1 01b3 d7e3 8f32 a716 b932
000003e0: c3bb f3b2 fa7a 9732 fa7a 9732 fa7a 9732
000003f0: fa7a 9732 295c e0bd 4821 b3bd 3f01 c0be

X f4 [34, 16, 28]
0.8146425 1.0 1.0 0.0 0.0 0.0 0.0 0.0
0.0 0.0 0.0 0.0 0.0 0.0 0.0 0.0
0.0 0.0 0.0 0.0 0.0 0.0 0.0 0.0
0.0 0.0 0.0 0.0 -0.7109356 1.0 1.0 0.0
0.0 0.0 0.0 0.0 0.0 0.0 0.0 0.0
0.0 0.0 0.0 0.0 0.0 0.0 0.0 0.0
0.0 0.0 0.0 0.0 0.0 0.0 0.0 0.0
0.23346987 1.0 0.0 0.0 1.0 0.0 0.0 0.0
0.0 0.0 0.0 0.0 0.0 0.0 0.0 0.0
0.0 0.0 0.0 0.0 0.0 0.0 0.0 0.0
0.0 0.0 0.0 0.0 -0.27505615 0.0 0.0 0.0
0.0 0.0 0.0 0.0 0.0 0.0 0.0 0.0
0.0 0.0 0.0 1.0 0.0 0.0 0.0 0.0
0.0 0.0 0.0 0.0 0.0 0.0 0.0 0.0
-0.4929959 1.0 0.0 0.0 0.0 0.0 0.0 0.0
0.0 0.0 0.0 0.0 0.0 0.0 0.0 0.0
0.0 0.0 0.0 0.0 0.0 0.0 0.0 1.0
0.0 0.0 0.0 0.0 -0.4929959 1.0 0.0 0.0
0.0 0.0 0.0 0.0 0.0 0.0 0.0 0.0
0.0 0.0 0.0 0.0 0.0 0.0 0.0 0.0
0.0 0.0 0.0 0.0 0.0 0.0 0.0 1.0
0.0 0.0 0.0 0.0 0.0 0.0 0.0 0.0
0.0 0.0 0.0 0.0 0.0 0.0 0.0 0.0
0.0 0.0 0.0 0.0 0.0 0.0 0.0 0.0
0.0 0.0 0.0 0.0 0.0 0.0 0.0 0.0
0.0 0.0 0.0 0.0 0.0 0.0 0.0 0.0
0.0 0.0 0.0 0.0 0.0 0.0 0.0 0.0
0.0 0.0 0.0 0.0 0.0 0.0 0.0 0.0
0.0 0.0 0.0 0.0 0.0 0.0 0.0 0.0
0.0 0.0 0.0 0.0 0.0 0.0 0.0 0.0
0.0 0.0 0.0 0.0 0.0 0.0 0.0 0.0
0.0 0.0 0.0 0.0 0.0 0.0 0.0 0.0
00000000: 698c 503f 0000 803f 0000 803f 0000 0000
00000010: 0000 0000 0000 0000 0000 0000 0000 0000
00000020: 0000 0000 0000 0000 0000 0000 0000 0000
00000030: 0000 0000 0000 0000 0000 0000 0000 0000
00000040: 0000 0000 0000 0000 0000 0000 0000 0000
00000050: 0000 0000 0000 0000 0000 0000 0000 0000
00000060: 0000 0000 0000 0000 0000 0000 0000 0000
00000070: e0ff 35bf 0000 803f 0000 803f 0000 0000
00000080: 0000 0000 0000 0000 0000 0000 0000 0000
00000090: 0000 0000 0000 0000 0000 0000 0000 0000
000000a0: 0000 0000 0000 0000 0000 0000 0000 0000
000000b0: 0000 0000 0000 0000 0000 0000 0000 0000
000000c0: 0000 0000 0000 0000 0000 0000 0000 0000
000000d0: 0000 0000 0000 0000 0000 0000 0000 0000
000000e0: ba12 6f3e 0000 803f 0000 0000 0000 0000
000000f0: 0000 803f 0000 0000 0000 0000 0000 0000
00000100: 0000 0000 0000 0000 0000 0000 0000 0000
00000110: 0000 0000 0000 0000 0000 0000 0000 0000
00000120: 0000 0000 0000 0000 0000 0000 0000 0000
00000130: 0000 0000 0000 0000 0000 0000 0000 0000
00000140: 0000 0000 0000 0000 0000 0000 0000 0000
00000150: 29d4 8cbe 0000 0000 0000 0000 0000 0000
00000160: 0000 0000 0000 0000 0000 0000 0000 0000
00000170: 0000 0000 0000 0000 0000 0000 0000 0000
00000180: 0000 0000 0000 0000 0000 0000 0000 803f
00000190: 0000 0000 0000 0000 0000 0000 0000 0000
000001a0: 0000 0000 0000 0000 0000 0000 0000 0000
000001b0: 0000 0000 0000 0000 0000 0000 0000 0000
000001c0: f569 fcbe 0000 803f 0000 0000 0000 0000
000001d0: 0000 0000 0000 0000 0000 0000 0000 0000
000001e0: 0000 0000 0000 0000 0000 0000 0000 0000
000001f0: 0000 0000 0000 0000 0000 0000 0000 0000
00000200: 0000 0000 0000 0000 0000 0000 0000 0000
00000210: 0000 0000 0000 0000 0000 0000 0000 803f
00000220: 0000 0000 0000 0000 0000 0000 0000 0000
00000230: f569 fcbe 0000 803f 0000 0000 0000 0000
00000240: 0000 0000 0000 0000 0000 0000 0000 0000
00000250: 0000 0000 0000 0000 0000 0000 0000 0000
00000260: 0000 0000 0000 0000 0000 0000 0000 0000
00000270: 0000 0000 0000 0000 0000 0000 0000 0000
00000280: 0000 0000 0000 0000 0000 0000 0000 0000
00000290: 0000 0000 0000 0000 0000 0000 0000 803f
000002a0: 0000 0000 0000 0000 0000 0000 0000 0000
000002b0: 0000 0000 0000 0000 0000 0000 0000 0000
000002c0: 0000 0000 0000 0000 0000 0000 0000 0000
000002d0: 0000 0000 0000 0000 0000 0000 0000 0000
000002e0: 0000 0000 0000 0000 0000 0000 0000 0000
000002f0: 0000 0000 0000 0000 0000 0000 0000 0000
00000300: 0000 0000 0000 0000 0000 0000 0000 0000
00000310: 0000 0000 0000 0000 0000 0000 0000 0000
00000320: 0000 0000 0000 0000 0000 0000 0000 0000
00000330: 0000 0000 0000 0000 0000 0000 0000 0000
00000340: 0000 0000 0000 0000 0000 0000 0000 0000
00000350: 0000 0000 0000 0000 0000 0000 0000 0000
00000360: 0000 0000 0000 0000 0000 0000 0000 0000
00000370: 0000 0000 0000 0000 0000 0000 0000 0000
00000380: 0000 0000 0000 0000 0000 0000 0000 0000
00000390: 0000 0000 0000 0000 0000 0000 0000 0000
000003a0: 0000 0000 0000 0000 0000 0000 0000 0000
000003b0: 0000 0000 0000 0000 0000 0000 0000 0000
000003c0: 0000 0000 0000 0000 0000 0000 0000 0000
000003d0: 0000 0000 0000 0000 0000 0000 0000 0000
000003e0: 0000 0000 0000 0000 0000 0000 0000 0000
000003f0: 0000 0000 0000 0000 0000 0000 0000 0000

J_z f4 [34, 11, 16]
0.73994005 -2.0852857 -0.06726728 0.73994005 0.73994005 -0.06726728 0.0 0.0
0.0 0.0 0.0 0.0 0.0 0.0 0.0 0.0
1.4372777 -0.7802365 -1.5194079 0.9444968 0.2053254 -0.28745556 0.0 0.0
0.0 0.0 0.0 0.0 0.0 0.0 0.0 0.0
0.6298898 -0.044992127 -1.8446772 1.0798111 0.1799685 0.0 0.0 0.0
0.0 0.0 0.0 0.0 0.0 0.0 0.0 0.0
-0.78446454 1.1766968 0.0 0.78446454 -1.1766968 0.0 0.0 0.0
0.0 0.0 0.0 0.0 0.0 0.0 0.0 0.0
1.3821895 -0.4319342 0.0 0.0 -0.9502553 0.0 0.0 0.0
0.0 0.0 0.0 0.0 0.0 0.0 0.0 0.0
-1.0 1.0 0.0 0.0 0.0 0.0 0.0 0.0
0.0 0.0 0.0 0.0 0.0 0.0 0.0 0.0
0.0 0.0 0.0 0.0 0.0 0.0 0.0 0.0
0.0 0.0 0.0 0.0 0.0 0.0 0.0 0.0
0.0 0.0 0.0 0.0 0.0 0.0 0.0 0.0
0.0 0.0 0.0 0.0 0.0 0.0 0.0 0.0
0.0 0.0 0.0 0.0 0.0 0.0 0.0 0.0
0.0 0.0 0.0 0.0 0.0 0.0 0.0 0.0
0.0 0.0 0.0 0.0 0.0 0.0 0.0 0.0
0.0 0.0 0.0 0.0 0.0 0.0 0.0 0.0
0.0 0.0 0.0 0.0 0.0 0.0 0.0 0.0
0.0 0.0 0.0 0.0 0.0 0.0 0.0 0.0
0.89043826 0.12720546 -0.38161638 -0.12720546 0.63602734 0.38161638 0.89043826 -1.9080819
1.1448492 -1.653671 0.0 0.0 0.0 0.0 0.0 0.0
-1.307575 -0.055641487 -0.055641487 -0.5564149 1.6970654 0.19474521 0.4451319 -1.5579617
1.196292 0.0 0.0 0.0 0.0 0.0 0.0 0.0
0.0 0.76736575 -0.1770844 0.5312532 1.0034783 -0.885422 -0.1770844 -2.0659847
1.0034783 0.0 0.0 0.0 0.0 0.0 0.0 0.0
0.0 0.38696373 -0.2503883 0.5463017 0.5463017 0.22762573 0.0 -2.3217824
0.8649778 0.0 0.0 0.0 0.0 0.0 0.0 0.0
0.0 -1.1851875 -0.436648 -0.062378287 1.8089703 -0.81091774 0.0 0.0
0.68616116 0.0 0.0 0.0 0.0 0.0 0.0 0.0
00000000: b66c 3d3f 5275 05c0 6dc3 89bd b66c 3d3f
00000010: b66c 3d3f 6dc3 89bd 0000 0000 0000 0000
00000020: 0000 0000 0000 0000 0000 0000 0000 0000
00000030: 0000 0000 0000 0000 0000 0000 0000 0000
00000040: b7f8 b73f 94bd 47bf f57b c2bf 8bca 713f
00000050: d240 523e 602d 93be 0000 0000 0000 0000
00000060: 0000 0000 0000 0000 0000 0000 0000 0000
00000070: 0000 0000 0000 0000 0000 0000 0000 0000
00000080: 7540 213f aa49 38bd 621e ecbf 4037 8a3f
00000090: aa49 383e 0000 0000 0000 0000 0000 0000
000000a0: 0000 0000 0000 0000 0000 0000 0000 0000
000000b0: 0000 0000 0000 0000 0000 0000 0000 0000
000000c0: abd2 48bf 009e 963f 0000 0000 abd2 483f
000000d0: 009e 96bf 0000 0000 0000 0000 0000 0000
000000e0: 0000 0000 0000 0000 0000 0000 0000 0000
000000f0: 0000 0000 0000 0000 0000 0000 0000 0000
00000100: 96eb b03f 7b26 ddbe 0000 0000 0000 0000
00000110: ee43 73bf 0000 0000 0000 0000 0000 0000
00000120: 0000 0000 0000 0000 0000 0000 0000 0000
00000130: 0000 0000 0000 0000 0000 0000 0000 0000
00000140: 0000 80bf 0000 803f 0000 0000 0000 0000
00000150: 0000 0000 0000 0000 0000 0000 0000 0000
00000160: 0000 0000 0000 0000 0000 0000 0000 0000
00000170: 0000 0000 0000 0000 0000 0000 0000 0000
00000180: 0000 0000 0000 0000 0000 0000 0000 0000
00000190: 0000 0000 0000 0000 0000 0000 0000 0000
000001a0: 0000 0000 0000 0000 0000 0000 0000 0000
000001b0: 0000 0000 0000 0000 0000 0000 0000 0000
000001c0: 0000 0000 0000 0000 0000 0000 0000 0000
000001d0: 0000 0000 0000 0000 0000 0000 0000 0000
000001e0: 0000 0000 0000 0000 0000 0000 0000 0000
000001f0: 0000 0000 0000 0000 0000 0000 0000 0000
00000200: 0000 0000 0000 0000 0000 0000 0000 0000
00000210: 0000 0000 0000 0000 0000 0000 0000 0000
00000220: 0000 0000 0000 0000 0000 0000 0000 0000
00000230: 0000 0000 0000 0000 0000 0000 0000 0000
00000240: 0000 0000 0000 0000 0000 0000 0000 0000
00000250: 0000 0000 0000 0000 0000 0000 0000 0000
00000260: 0000 0000 0000 0000 0000 0000 0000 0000
00000270: 0000 0000 0000 0000 0000 0000 0000 0000
00000280: 0000 0000 0000 0000 0000 0000 0000 0000
00000290: 0000 0000 0000 0000 0000 0000 0000 0000
000002a0: 0000 0000 0000 0000 0000 0000 0000 0000
000002b0: 0000 0000 0000 0000 0000 0000 0000 0000
000002c0: c3f3 633f 2642 023e 3963 c3be 2642 02be
000002d0: b0d2 223f 3963 c33e c3f3 633f 073c f4bf
000002e0: 6b8a 923f 7eab d3bf 0000 0000 0000 0000
000002f0: 0000 0000 0000 0000 0000 0000 0000 0000
00000300: 9e5e a7bf 54e8 63bd 54e8 63bd 3571 0ebf
00000310: 7039 d93f 4a6b 473e 54e8 e33e 4a6b c7bf
00000320: 1920 993f 0000 0000 0000 0000 0000 0000
00000330: 0000 0000 0000 0000 0000 0000 0000 0000
00000340: 0000 0000 1572 443f 9d55 35be 3600 083f
00000350: fa71 803f 04ab 62bf 9d55 35be 1839 04c0
00000360: fa71 803f 0000 0000 0000 0000 0000 0000
00000370: 0000 0000 0000 0000 0000 0000 0000 0000
00000380: 0000 0000 1c20 c63e e532 80be 6eda 0b3f
00000390: 6eda 0b3f b816 693e 0000 0000 1598 14c0
000003a0: 2f6f 5d3f 0000 0000 0000 0000 0000 0000
000003b0: 0000 0000 0000 0000 0000 0000 0000 0000
000003c0: 0000 0000 39b4 97bf 5490 dfbe 6080 7fbd
000003d0: 578c e73f 4e98 4fbf 0000 0000 0000 0000
000003e0: 42a8 2f3f 0000 0000 0000 0000 0000 0000
000003f0: 0000 0000 0000 0000 0000 0000 0000 0000

active_mask f4 [34, 11, 16]
1.0 1.0 1.0 1.0 1.0 1.0 0.0 0.0
0.0 0.0 0.0 0.0 0.0 0.0 0.0 0.0
1.0 1.0 1.0 1.0 1.0 1.0 0.0 0.0
0.0 0.0 0.0 0.0 0.0 0.0 0.0 0.0
1.0 1.0 1.0 1.0 1.0 0.0 0.0 0.0
0.0 0.0 0.0 0.0 0.0 0.0 0.0 0.0
1.0 1.0 0.0 1.0 1.0 0.0 0.0 0.0
0.0 0.0 0.0 0.0 0.0 0.0 0.0 0.0
1.0 1.0 0.0 0.0 1.0 0.0 0.0 0.0
0.0 0.0 0.0 0.0 0.0 0.0 0.0 0.0
1.0 1.0 0.0 0.0 0.0 0.0 0.0 0.0
0.0 0.0 0.0 0.0 0.0 0.0 0.0 0.0
0.0 0.0 0.0 0.0 0.0 0.0 0.0 0.0
0.0 0.0 0.0 0.0 0.0 0.0 0.0 0.0
0.0 0.0 0.0 0.0 0.0 0.0 0.0 0.0
0.0 0.0 0.0 0.0 0.0 0.0 0.0 0.0
0.0 0.0 0.0 0.0 0.0 0.0 0.0 0.0
0.0 0.0 0.0 0.0 0.0 0.0 0.0 0.0
0.0 0.0 0.0 0.0 0.0 0.0 0.0 0.0
0.0 0.0 0.0 0.0 0.0 0.0 0.0 0.0
0.0 0.0 0.0 0.0 0.0 0.0 0.0 0.0
0.0 0.0 0.0 0.0 0.0 0.0 0.0 0.0
1.0 1.0 1.0 1.0 1.0 1.0 1.0 1.0
1.0 1.0 0.0 0.0 0.0 0.0 0.0 0.0
1.0 1.0 1.0 1.0 1.0 1.0 1.0 1.0
1.0 0.0 0.0 0.0 0.0 0.0 0.0 0.0
0.0 1.0 1.0 1.0 1.0 1.0 1.0 1.0
1.0 0.0 0.0 0.0 0.0 0.0 0.0 0.0
0.0 1.0 1.0 1.0 1.0 1.0 0.0 1.0
1.0 0.0 0.0 0.0 0.0 0.0 0.0 0.0
0.0 1.0 1.0 1.0 1.0 1.0 0.0 0.0
1.0 0.0 0.0 0.0 0.0 0.0 0.0 0.0
00000000: 0000 803f 0000 803f 0000 803f 0000 803f
00000010: 0000 803f 0000 803f 0000 0000 0000 0000
00000020: 0000 0000 0000 0000 0000 0000 0000 0000
00000030: 0000 0000 0000 0000 0000 0000 0000 0000
00000040: 0000 803f 0000 803f 0000 803f 0000 803f
00000050: 0000 803f 0000 803f 0000 0000 0000 0000
00000060: 0000 0000 0000 0000 0000 0000 0000 0000
00000070: 0000 0000 0000 0000 0000 0000 0000 0000
00000080: 0000 803f 0000 803f 0000 803f 0000 803f
00000090: 0000 803f 0000 0000 0000 0000 0000 0000
000000a0: 0000 0000 0000 0000 0000 0000 0000 0000
000000b0: 0000 0000 0000 0000 0000 0000 0000 0000
000000c0: 0000 803f 0000 803f 0000 0000 0000 803f
000000d0: 0000 803f 0000 0000 0000 0000 0000 0000
000000e0: 0000 0000 0000 0000 0000 0000 0000 0000
000000f0: 0000 0000 0000 0000 0000 0000 0000 0000
00000100: 0000 803f 0000 803f 0000 0000 0000 0000
00000110: 0000 803f 0000 0000 0000 0000 0000 0000
00000120: 0000 0000 0000 0000 0000 0000 0000 0000
00000130: 0000 0000 0000 0000 0000 0000 0000 0000
00000140: 0000 803f 0000 803f 0000 0000 0000 0000
00000150: 0000 0000 0000 0000 0000 0000 0000 0000
00000160: 0000 0000 0000 0000 0000 0000 0000 0000
00000170: 0000 0000 0000 0000 0000 0000 0000 0000
00000180: 0000 0000 0000 0000 0000 0000 0000 0000
00000190: 0000 0000 0000 0000 0000 0000 0000 0000
000001a0: 0000 0000 0000 0000 0000 0000 0000 0000
000001b0: 0000 0000 0000 0000 0000 0000 0000 0000
000001c0: 0000 0000 0000 0000 0000 0000 0000 0000
000001d0: 0000 0000 0000 0000 0000 0000 0000 0000
000001e0: 0000 0000 0000 0000 0000 0000 0000 0000
000001f0: 0000 0000 0000 0000 0000 0000 0000 0000
00000200: 0000 0000 0000 0000 0000 0000 0000 0000
00000210: 0000 0000 0000 0000 0000 0000 0000 0000
00000220: 0000 0000 0000 0000 0000 0000 0000 0000
00000230: 0000 0000 0000 0000 0000 0000 0000 0000
00000240: 0000 0000 0000 0000 0000 0000 0000 0000
00000250: 0000 0000 0000 0000 0000 0000 0000 0000
00000260: 0000 0000 0000 0000 0000 0000 0000 0000
00000270: 0000 0000 0000 0000 0000 0000 0000 0000
00000280: 0000 0000 0000 0000 0000 0000 0000 0000
00000290: 0000 0000 0000 0000 0000 0000 0000 0000
000002a0: 0000 0000 0000 0000 0000 0000 0000 0000
000002b0: 0000 0000 0000 0000 0000 0000 0000 0000
000002c0: 0000 803f 0000 803f 0000 803f 0000 803f
000002d0: 0000 803f 0000 803f 0000 803f 0000 803f
000002e0: 0000 803f 0000 803f 0000 0000 0000 0000
000002f0: 0000 0000 0000 0000 0000 0000 0000 0000
00000300: 0000 803f 0000 803f 0000 803f 0000 803f
00000310: 0000 803f 0000 803f 0000 803f 0000 803f
00000320: 0000 803f 0000 0000 0000 0000 0000 0000
00000330: 0000 0000 0000 0000 0000 0000 0000 0000
00000340: 0000 0000 0000 803f 0000 803f 0000 803f
00000350: 0000 803f 0000 803f 0000 803f 0000 803f
00000360: 0000 803f 0000 0000 0000 0000 0000 0000
00000370: 0000 0000 0000 0000 0000 0000 0000 0000
00000380: 0000 0000 0000 803f 0000 803f 0000 803f
00000390: 0000 803f 0000 803f 0000 0000 0000 803f
000003a0: 0000 803f 0000 0000 0000 0000 0000 0000
000003b0: 0000 0000 0000 0000 0000 0000 0000 0000
000003c0: 0000 0000 0000 803f 0000 803f 0000 803f
000003d0: 0000 803f 0000 803f 0000 0000 0000 0000
000003e0: 0000 803f 0000 0000 0000 0000 0000 0000
000003f0: 0000 0000 0000 0000 0000 0000 0000 0000

exp_avg f4 [28]
1.1556572 0.113781154 0.14298938 -0.0012485366 0.23684391 -0.0049876417 -0.022749214 0.058952153
0.023331095 0.012970481 -0.0026366743 0.019023845 -0.0013751466 -0.0014305908 -0.013547288 0.099848814
-0.0137326075 0.010257917 -0.039110497 0.13924497 -0.034909777 -0.012899008 0.007215392 -0.13604693
-0.015195811 0.022406243 -0.017320571 -0.4308725
00000000: 93ec 933f 1806 e93d cf6b 123e f0a5 a3ba
00000010: 3687 723e 5f6f a3bb 8f5c babc d077 713d
00000020: da20 bf3c 2482 543c 0ecc 2cbb e5d7 9b3c
00000030: 433e b4ba a982 bbba 72f5 5dbc 897d cc3d
00000040: bbfe 60bc d310 283c 5432 20bd 3c96 0e3e
00000050: 8efd 0ebd 5c56 53bc 186f ec3b e34f 0bbe
00000060: daf7 78bc 4c8d b73c dfe3 8dbc 529b dcbe

exp_avg_sq f4 [28]
10.318166 1.5848442 3.0653656 0.0006988991 1.2822025 0.0026835105 0.39081064 0.16679862
0.020018158 0.19646578 0.0011989729 0.058007684 0.00037534465 2.8029266e-05 0.0026477668 0.6211105
0.003186941 0.0009851054 0.13871688 0.22921318 0.015016463 0.01001837 0.0054569715 1.3826673
0.3610279 0.021824779 0.026278753 2.2666829
00000000: 3517 2541 2ddc ca3f f32e 4440 5336 373a
00000010: 361f a43f d6dd 2f3b 5518 c83e 42cd 2a3e
00000020: 1ffd a33c 532e 493e db26 9d3a 7799 6d3d
00000030: e8c9 c439 6420 eb37 2886 2d3b 1901 1f3f
00000040: ffdb 503b a71e 813a cc0b 0e3e dcb6 6a3e
00000050: 9c07 763c 1724 243c 65d0 b23b 3efb b03f
00000060: a6d8 b83e e1c9 b23c 8a46 d73c 5511 1140

exp_avg f4 [28]
0.06942878 -0.088261515 -0.06298114 -0.0013011398 -0.06782468 -0.0101342555 -0.06041489 -0.043598503
-0.030232027 -0.005790234 -0.006239257 -0.009010707 -0.0034584152 -0.0020203867 0.022966634 -0.0421419
0.028869173 -0.008502463 -0.008852604 -0.003307733 0.112794705 0.061136674 -0.015449968 -0.009467079
-0.08279327 -0.012998371 -0.021054437 -0.036578536
00000000: ad30 8e3d 74c2 b4bd 42fc 80bd 028b aaba
00000010: aae7 8abd 260a 26bc 9b75 77bd 5894 32bd
00000020: 28a9 f7bc 01bc bdbb ae72 ccbb a5a1 13bc
00000030: 94a6 62bb 7768 04bb 8624 bc3c fc9c 2cbd
00000040: 0b7f ec3c ea4d 0bbc 830a 11bc 8dc6 58bb
00000050: e900 e73d 736a 7a3d dd21 7dbc cf1b 1bbc
00000060: 858f a9bd 1ff7 54bc 5b7a acbc 60d3 15bd

exp_avg_sq f4 [28]
0.16265728 0.059402827 0.07441768 0.0008625872 0.044625193 0.0032779013 0.045323987 0.059382178
0.034598432 0.043527737 0.0020257684 0.054935314 0.0013515421 5.0600174e-05 0.002801845 0.04512464
0.003704047 0.0013382578 0.03631076 0.041704554 0.03803946 0.0072352453 0.007651102 0.05585384
0.036910802 0.020590154 0.024771417 0.059227686
00000000: a18f 263e 6150 733d 4c68 983d 3f1f 623a
00000010: e8c8 363d 0fd2 563b a5a5 393d ba3a 733d
00000020: 16b7 0d3d 244a 323d c1c2 043b da03 613d
00000030: 3a26 b13a 863b 5438 299f 373b 9dd4 383d
00000040: 99bf 723b 7b68 af3a 97ba 143d 65d2 2a3d
00000050: 44cf 1b3d a315 ed3b 18b6 fa3b ffc6 643d
00000060: c82f 173d afac a83c 6ded ca3c bb98 723d

exp_avg f4 [60]
-0.24074294 0.059590314 0.025800666 -0.030175336 -0.028436668 -0.0012035829 -0.05665295 0.03352674
0.1008198 0.19878708 -0.0049876417 -0.2614166 -0.043363903 0.037542716 -0.086209156 -0.0036213314
-0.0020317857 0.025359083 -0.12911786 0.21173 -0.048542324 0.0068956427 -0.004030386 0.26941073
0.061397094 0.058952153 0.022588827 -0.009596479 -0.20275675 3.4385056e-10 0.0009137894 -0.05048024
-0.22386457 0.0076324535 0.0105416095 -0.014651262 0.009824888 0.053784456 -0.00071880734 0.022381049
-0.085467696 -0.02032561 0.20377228 0.23817226 -0.09537061 0.08369065 -0.048921846 0.12585576
0.062415123 -0.13465714 -0.09198883 -0.051827867 0.054877687 0.011045684 -0.009074291 -0.031430874
0.022406243 -0.14961982 0.15825455 0.036278497
00000000: 5185 76be f914 743d eb5b d33c 4432 f7bc
00000010: 04f4 e8bc 8ac1 9dba ec0c 68bd 5653 093d
00000020: 9c7a ce3d d78e 4b3e 5f6f a3bb 66d8 85be
00000030: 599e 31bd 64c6 193d 6d8e b0bd dc53 6dbb
00000040: b527 05bb dabd cf3c 7937 04be c0cf 583e
00000050: 51d4 46bd d8f4 e13b 5411 84bb 34f0 893e
00000060: 857b 7b3d d077 713d 340c b93c 8d3a 1dbc
00000070: 779f 4fbe aa08 bd2f 5e8b 6f3a 5ec4 4ebd
00000080: c13c 65be a919 fa3b b7b6 2c3c d90b 70bc
00000090: 91f8 203c 174d 5c3d 586e 3cba 7658 b73c
000000a0: b009 afbd e581 a6bc aea9 503e 6ee3 733e
000000b0: ab51 c3bd 0166 ab3d 4662 48bd 55e0 003e
000000c0: 00a7 7f3d 90e3 09be a464 bcbd 7549 54bd
000000d0: 6dc7 603d f5f8 343c 56ac 14bc a9bd 00bd
000000e0: 4c8d b73c f035 19be 7b0d 223e c398 143d

exp_avg_sq f4 [60]
0.5337176 0.07937094 0.021845913 0.010747537 0.02374127 0.0003522328 0.084525086 0.19441108
0.10116869 0.82971966 0.0026835105 0.49146128 0.02241795 0.014183144 0.33589095 0.002195394
0.0007340736 0.5457373 0.07788701 0.11781285 0.0044120764 0.124816 0.0020693245 0.63912827
0.2665596 0.16679862 0.016585395 0.0016886552 1.0312326 7.101413e-09 2.0342299e-05 0.18207207
0.41082734 0.0010912465 0.12430146 0.02280833 0.04857977 0.13453308 0.27562648 0.000968242
0.032850694 0.014770461 0.2750455 0.35091403 0.088834725 0.21637543 0.028307788 0.85700715
0.65310794 0.4114104 0.46161434 0.2595934 0.036592085 0.003309813 0.00077430706 0.08969581
0.021824779 0.3543739 0.22339639 0.027510311
00000000: b7a1 083f 3b8d a23d 33f6 b23c 7016 303c
00000010: 0d7d c23c e3ab b839 7d1b ad3d b313 473e
00000020: 8831 cf3d 8268 543f d6dd 2f3b d0a0 fb3e
00000030: d9a5 b73c 6b60 683c e6f9 ab3e 99e0 0f3b
00000040: d86e 403a 71b5 0b3f 3a83 9f3d dd47 f13d
00000050: 2e93 903b 889f ff3d 819d 073b e99d 233f
00000060: 807a 883e 42cd 2a3e 18de 873c de55 dd3a
00000070: 6eff 833f b000 f431 c1a4 aa37 1a71 3a3e
00000080: f657 d23e 2808 8f3a c491 fe3d 89d8 ba3c
00000090: 95fb 463d 0ac3 093e ea1e 8d3e 9fd1 7d3a
000000a0: 738e 063d ceff 713c c4d2 8c3e 01ab b33e
000000b0: fbee b53d 8591 5d3e bce5 e73c d264 5b3f
000000c0: 1532 273f 62a4 d23e b758 ec3e 6de9 843e
000000d0: 95e1 153d 73e9 583b defa 4a3a 70b2 b73d
000000e0: e1c9 b23c 7f70 b53e 06c2 643e 4e5d e13c
