task1/outputs/run_torch/checkpoint_epoch1000.pt (torch, 289643 bytes, 33 tensors)

beta_mu f4 [28]
-0.39986065 0.45633045 0.076680906 -0.09512688 0.3652772 -0.43869042 0.1592451 -0.752748
0.3259399 -0.7123839 -0.18639037 0.6838355 -0.10997679 -0.03660652 0.5902575 -1.5035504
0.7337455 0.40575847 -0.32520425 0.7267754 0.101191014 0.8026098 -0.34159306 0.05869974
-0.40639243 0.3198353 -0.08505328 0.025785794
00000000: 89ba ccbe 25a4 e93e e10a 9d3d e2d1 c2bd
00000010: 9d05 bb3e 089c e0be 2611 233e 18b4 40bf
00000020: 98e1 a63e cb5e 36bf 1edd 3ebe d80f 2f3f
00000030: 833b e1bd b8f0 15bd 1e1b 173f 5774 c0bf
00000040: bfd6 3b3f 93bf cf3e 2c81 a6be f40d 3a3f
00000050: 3c3d cf3d d677 4d3f 49e5 aebe 236f 703d
00000060: ab12 d0be 74c1 a33e 6a30 aebd bb3c d33c

beta_logstd f4 [28]
-2.5381339 -1.7525004 -2.073879 -0.04285374 -1.8855113 -0.11864482 -1.2719347 -0.73555756
-0.20101641 -0.9070817 -0.0817577 -0.43708247 -0.060364883 -0.0036669415 -0.17510204 -1.4280221
-0.1755065 -0.051307652 -0.80309844 -1.0232639 -0.033680655 -0.2651798 -0.29522946 -1.7617409
-1.3083289 -0.22305346 -0.3032607 -1.9225138
00000000: c970 22c0 ef51 e0bf 6fba 04c0 6787 2fbd
00000010: 6f58 f1bf 0efc f2bd c2ce a2bf 804d 3cbf
00000020: 3fd7 4dbe 8236 68bf 9570 a7bd 46c9 dfbe
00000030: 2b41 77bd 1251 70bb f34d 33be 6ec9 b6bf
00000040: fab7 33be f927 52bd dc97 4dbf 50fa 82bf
00000050: baf4 09bd a6c5 87be 5128 97be ba80 e1bf
00000060: 5277 a7bf 2068 64be fd44 9bbe ef14 f6bf

u_pro_mu f4 [60]
0.10546733 0.78358597 -0.30054867 -0.028112784 -0.5479771 0.10747275 0.15088856 0.0060664876
0.63370544 -0.9036414 -0.43869042 -0.41398117 0.6516359 -0.32012442 0.6388377 -0.16670743
-0.01868596 0.6798272 1.0059261 0.3818179 0.20125555 0.29892156 -0.26281714 -0.15568596
1.2106575 -0.752748 0.31777105 -0.06544204 -0.80267394 -1.3279235e-06 -0.07864093 -0.53871745
-0.1771456 -0.1670474 -0.6765913 0.12742555 -0.06326034 -0.84206307 0.41636458 -0.067883275
0.3683224 0.32367414 1.440945 -0.69393104 0.08676841 -0.23391436 -0.8926641 -0.7103838
-0.2723638 0.67823076 -0.09855777 0.07963604 -0.27620032 -0.0381161 -0.121258184 -0.29429626
0.3198353 -0.06776931 0.5311632 0.45143455
00000000: 41ff d73d 1799 483f 84e1 99be c84c e6bc
00000010: 3a48 0cbf ac1a dc3d 8882 1a3e 63c9 c63b
00000020: 853a 223f 0b55 67bf 089c e0be 57f5 d3be
00000030: 9cd1 263f 59e7 a3be de8a 233f 5ab5 2abe
00000040: 4c13 99bc 2809 2e3f 30c2 803f a37d c33e
00000050: ef15 4e3e 3f0c 993e f88f 86be 246c 1fbe
00000060: d3f6 9a3f 18b4 40bf e3b2 a23e 7a06 86bd
00000070: 0a7c 4dbf 1b3b b2b5 7f0e a1bd 63e9 09bf
00000080: a865 35be 790e 2bbe 1635 2dbf d87b 023e
00000090: a38e 81bd 7291 57bf bd2d d53e 6306 8bbd
000000a0: c194 bc3e 9eb8 a53e e370 b83f 77a5 31bf
000000b0: a3b3 b13d 3f87 6fbe a285 64bf b6db 35bf
000000c0: 4573 8bbe 88a0 2d3f a8d8 c9bd 3818 a33d
000000d0: 216a 8dbe a11f 1cbd 3656 f8bd 00ae 96be
000000e0: 74c1 a33e a3ca 8abd 50fa 073f 6e22 e73e

u_pro_logstd f4 [60]
-1.4060535 -0.407402 -0.40766367 -0.3472295 -0.19360116 -0.009924636 -0.7578215 -1.0154047
-0.6782324 -1.6490263 -0.13944143 -1.3677586 -0.33770895 -0.439056 -1.3599279 -0.10519235
-0.04178276 -1.4752016 -0.53033286 -1.0537077 -0.1838413 -0.908821 -0.13761896 -1.5178766
-1.0345407 -0.69918907 -0.20049304 -0.06282964 -1.5815018 9.306884e-09 0.0057308823 -0.85223204
-1.1393435 -0.06275148 -0.81347364 -0.5274923 -0.89758414 -0.70094573 -1.083878 -0.016317867
-0.70453924 -0.41834226 -1.2347957 -1.1391398 -0.93715715 -1.1741327 -0.4993116 -1.5594522
-1.580095 -1.2211757 -1.3587117 -1.0958648 -0.6411168 -0.12785551 -0.03729254 -0.58001435
-0.12188014 -1.2396375 -1.0436072 -0.2304687
00000000: 90f9 b3bf ff96 d0be 4bb9 d0be 11c8 b1be
00000010: 623f 46be f19a 22bc 9700 42bf c8f8 81bf
00000020: a3a0 2dbf 4b13 d3bf bcc9 0ebe b712 afbf
00000030: 30e8 acbe f3cb e0be 1e12 aebf 166f d7bd
00000040: 6624 2bbd 68d3 bcbf e5c3 07bf e5df 86bf
00000050: e540 3cbe 7ea8 68bf fceb 0cbe c849 c2bf
00000060: d46b 84bf 0efe 32bf 0c4e 4dbe d4ac 80bd
00000070: a76e cabf 1ce4 1f32 20ca bb3b e12b 5abf
00000080: 02d6 91bf d983 80bd cf3f 50bf bc09 07bf
00000090: 13c8 65bf 2e71 33bf 84bc 8abf 0cad 85bc
000000a0: af5c 34bf f530 d6be c90d 9ebf 55cf 91bf
000000b0: 88e9 6fbf fb49 96bf c5a5 ffbe 219c c7bf
000000c0: 8e40 cabf 7c4f 9cbf 44ea adbf 4c45 8cbf
000000d0: 3b20 24bf 8eec 02be 10c0 18bd d27b 14bf
000000e0: 4b9c f9bd 71ac 9ebf ec94 85bf fdff 6bbe

v_celeb_mu f4 [408]
-0.56124234 -0.38666248 -0.117702134 0.058025487 -1.0851033 -0.15195589 -0.23326497 0.5902575
-0.5479303 -0.40525115 0.25682044 0.42482987 0.3198353 0.35201243 1.205482 0.361326
0.45479542 -0.027084313 0.5360868 -0.008529293 -0.13187933 1.2106575 -0.752748 -0.40796694
-0.021277271 -0.19337626 0.33352712 0.4531843 -0.07954039 -0.12230105 -0.502087 -0.006769749
-0.023488209 -0.067116074 0.8386421 -0.116009526 -0.092989676 -0.18639037 0.35032436 -0.121258184
0.010195295 0.13188827 0.53201336 0.30012202 0.07099898 -0.31499153 -0.31542766 -0.058801558
0.7222795 0.33713335 -0.3918931 -0.09512688 0.29620835 -0.16156958 0.85104 -0.58458304
0.024698911 -0.045558393 -0.082234725 -0.046694003 0.18271595 0.1632963 -1.032696 0.05321518
-0.31292957 -0.027611816 -0.02286351 -0.12572831 0.47883022 0.33289605 -0.30226603 -0.22999035
0.019116824 0.27385232 -0.101180986 -0.61545336 -1.0560249 -0.3463666 -0.36214495 -0.100105256
0.030610362 -0.10218221 -0.16652071 0.6838355 -0.51574516 0.5143612 -0.2568736 0.5247136
-0.14650534 -0.14418833 -0.3991498 0.6324654 -0.042622674 0.48221013 -0.27187487 -0.189628
-0.2082072 0.7117593 0.023987902 -0.073990576 -0.22364904 -0.21450391 -0.16888937 -1.3279235e-06
0.65365607 0.5790181 -1.778651e-08 -0.13986894 -0.19962202 0.0042308103 0.22017942 -0.078094095
1.0059261 0.78358597 -0.41347104 -0.42562026 0.4876128 0.56094176 -0.14266737 0.44372997
0.22194323 0.1570112 0.2583395 -0.18864462 -0.31197754 0.42930952 0.23371899 -0.062053606
-0.11761368 0.22229028 -0.10997679 0.47502136 0.38672873 -0.7415445 -0.0742976 0.4440479
-0.51763505 0.869451 -0.49948394 -0.01718244 -0.7062058 0.33563346 0.43035462 -0.80846846
0.35733217 -0.015574543 0.044508338 -0.09968746 1.1044494 0.8942328 0.068960406 0.4483688
0.6415278 -0.18259874 0.4377403 -0.124929525 -0.24446237 -0.43372178 0.45431858 -0.22340317
-0.15218915 -0.093278095 -1.7161655 0.33501554 0.077633284 0.4581803 -1.0132015 0.40413046
0.4960607 0.59632975 -0.07330129 -0.53871745 -1.4720261 0.045201913 -0.3279006 0.4190182
1.3899224 0.08997687 -0.659605 -0.5450023 0.17648426 0.057275034 -0.17833868 -0.6271321
-0.04578248 -0.0043001124 0.23007213 0.46997637 0.56801176 0.6516359 -0.14786838 -0.09232732
-0.07869912 -0.31729856 -0.39272654 0.31777105 0.2939485 -0.33661088 -1.3912249 0.07366768
-0.075452566 0.111557655 0.6398407 0.42195937 -0.69931173 -0.10065776 0.1066839 -0.111397974
0.6013434 -0.037103307 0.27868193 0.27736017 0.8518856 0.6011201 -0.18407698 -0.5479771
0.20255354 -0.22659509 -0.014817955 -0.19663769 0.013112329 0.8175843 0.3263419 -0.3902128
-0.025452083 0.5039714 0.24876569 -0.054591592 0.40661922 0.983328 -0.62264156 0.30591634
-0.009198898 -0.15293704 0.00413859 -0.12330971 -0.6888912 -0.38383144 0.40575847 -0.2780801
-0.036107656 -0.10231732 0.010245422 -0.048750073 -0.1245714 -0.90955573 0.72770786 -0.09483777
-0.40642628 0.4290198 0.2100185 -0.21100098 0.032542635 -0.2007491 -0.06544204 -0.016845286
00000000: 94ad 0fbf a0f8 c5be d10d f1bd 22ac 6d3d
00000010: aae4 8abf 539a 1bbe 03dd 6ebe 1e1b 173f
00000020: 2945 0cbf 147d cfbe f87d 833e 4d83 d93e
00000030: 74c1 a33e f93a b43e 3c4d 9a3f b9ff b83e
00000040: f2da e83e ecdf ddbc fc3c 093f 73be 0bbc
00000050: 600b 07be d3f6 9a3f 18b4 40bf 0be1 d0be
00000060: ac4d aebc 6d04 46be 11c4 aa3e c607 e83e
00000070: 12e6 a2bd f978 fabd c688 00bf c5d4 ddbb
00000080: 586a c0bc 2774 89bd 40b1 563f 6796 edbd
00000090: 5f71 bebd 1edd 3ebe b75d b33e 3656 f8bd
000000a0: 2b0a 273c b80d 073e 0732 083f 98a9 993e
000000b0: ea67 913d 9246 a1be bc7f a1be e7d9 70bd
000000c0: 4fe7 383f be9c ac3e 36a6 c8be e2d1 c2bd
000000d0: 9fa8 973e 7f72 25be c2dd 593f 3ca7 15bf
000000e0: 5f55 ca3c 709b 3abd ae6a a8bd 3642 3fbd
000000f0: e419 3b3e 2537 273e 622f 84bf 29f8 593d
00000100: 4e38 a0be 2d32 e2bc 414c bbbc ecbe 00be
00000110: 3c29 f53e 5a71 aa3e 9dc2 9abe 9782 6bbe
00000120: e39a 9c3c 5f36 8c3e fa37 cfbd 5a8e 1dbf
00000130: d32b 87bf f756 b1be 106b b9be fc03 cdbd
00000140: 95c2 fa3c e844 d1bd 6884 2abe d80f 2f3f
00000150: e007 04bf 2dad 033f f084 83be a153 063f
00000160: 7f05 16be 1ba6 13be 5d5d ccbe 41e9 213f
00000170: 1d95 2ebd 3fe4 f63e 2f33 8bbe d82d 42be
00000180: 4534 55be dc35 363f 4782 c43c 5f88 97bd
00000190: 4104 65be eaa6 5bbe 56f1 2cbe 1b3b b2b5
000001a0: 0156 273f 883a 143f f3c8 98b2 ce39 0fbe
000001b0: b769 4cbe 9ca2 8a3b b776 613e ccef 9fbd
000001c0: 30c2 803f 1799 483f 7ab2 d3be e6ea d9be
000001d0: 63a8 f93e e199 0f3f 6517 12be 9330 e33e
000001e0: 1645 633e 8bc7 203e 1345 843e 0e2c 41be
000001f0: 85bb 9fbe 75ce db3e 0854 6f3e ec2b 7ebd
00000200: 71df f0bd 10a0 633e 833b e1bd 0036 f33e
00000210: 4f01 c63e dcd5 3dbf 5729 98bd 3f5a e33e
00000220: bb83 04bf 5794 5e3f 5cbc ffbe 30c2 8cbc
00000230: e7c9 34bf 26d8 ab3e 7157 dc3e caf7 4ebf
00000240: 3ef4 b63e 5e2c 7fbc 604e 363d f028 ccbd
00000250: 995e 8d3f 71ec 643f 1d3b 8d3d 9890 e53e
00000260: 2a3b 243f 2afb 3abe 7f1f e03e 0ddb ffbd
00000270: 5854 7abe c810 debe 729c e83e cdc3 64be
00000280: 79d7 1bbe 9608 bfbd 50ab dbbf 2887 ab3e
00000290: 33fe 9e3d 9c96 ea3e 96b0 81bf 30ea ce3e
000002a0: abfb fd3e 11a9 183f fd1e 96bd 63e9 09bf
000002b0: 5a6b bcbf a425 393d 96e2 a7be 8e89 d63e
000002c0: fae8 b13f cb45 b83d e0db 28bf 4585 0bbf
000002d0: 4ab8 343e 3a99 6a3d 6a9e 36be bb8b 20bf
000002e0: 6986 3bbd f5e7 8cbb 0798 6b3e bea0 f03e
000002f0: 3869 113f 9cd1 263f cf6a 17be 1b16 bdbd
00000300: 012d a1bd f574 a2be 7413 c9be e3b2 a23e
00000310: 6b80 963e 4358 acbe a813 b2bf 15df 963d
00000320: e086 9abd 5778 e43d 9acc 233f 0f0b d83e
00000330: 1806 33bf a825 cebd 177d da3d 9f24 e4bd
00000340: a4f1 193f a3f9 17bd 66af 8e3e 2702 8e3e
00000350: 2d15 5a3f 02e3 193f ad7e 3cbe 3a48 0cbf
00000360: 326a 4f3e 8b08 68be 02c7 72bc 645b 49be
00000370: 18d5 563c 344d 513f 4916 a73e f9c9 c7be
00000380: e380 d0bc 4504 013f 6fbc 7e3e 6f9b 5fbd
00000390: 6530 d03e 62bb 7b3f 7065 1fbf 11a1 9c3e
000003a0: fab6 16bc 879b 1cbe 029d 873b cd89 fcbd
000003b0: 2c5b 30bf 8e85 c4be 93bf cf3e 8460 8ebe
000003c0: 9fe5 13bd be8b d1bd 6adc 273c 28ae 47bd
000003d0: 4a1f ffbd a5d8 68bf 104b 3a3f 4e3a c2bd
000003e0: 1b17 d0be 7ca8 db3e 170f 573e a410 58be
000003f0: 6d4b 053d 2c91 4dbe 7a06 86bd 20ff 89bc

v_celeb_logstd f4 [408]
-0.6849556 -0.17254989 -0.06892281 -0.010468764 -1.0400398 -0.035943113 -0.08793801 -0.14829563
-0.1845778 -0.34465706 -0.036632523 -0.09721424 -0.25000602 -0.24554743 -0.9165655 -0.15895334
-0.0661172 -0.015119588 -0.13762064 -0.10810051 -0.101972565 -1.058303 -0.70079654 -0.658986
-0.15605758 -0.12162026 -0.07096914 -0.36370823 -0.004531434 -0.020891942 -0.1687951 -0.0023294142
-0.008582432 -0.04459093 -1.1627074 -0.04602777 -0.24412523 -0.11737153 0.006130462 -0.061289363
0.0042208363 -0.10546758 -0.10312151 0.03751305 -0.1276577 -0.3090662 -0.2793619 -0.5765572
-0.21627282 -0.15652794 -0.7807762 -0.027722863 -0.12008067 -0.23046978 0.021724524 -0.36905503
-0.64215565 -0.07467731 -0.23148793 -0.0369899 -0.08763716 -0.16350327 -0.46436977 -0.036553744
-0.1784352 -0.019393321 -0.008035159 -0.119211614 -0.106048174 -0.81582135 -0.20843373 -0.079648726
-0.021376655 0.024106886 -0.95721775 -0.22065584 -0.6956306 -0.16058037 -0.21166582 -0.06213804
-0.0025014605 -0.028154291 -0.3107461 -0.4079901 -0.19813608 -0.11585421 -0.09644461 -0.13775846
-0.042893723 -0.06412181 -0.22319378 -0.61211413 -0.9577518 -0.35071057 -0.13302737 -0.17351203
-0.10851128 -0.18911022 -0.036339283 -0.016275615 -0.08243882 -0.08890881 -0.01836342 -8.399736e-09
-0.09929811 -0.060692053 -3.789328e-08 -0.11054288 -0.068088286 -0.089960665 0.016985504 -0.6662534
-0.50004923 -0.41169903 -0.17444469 -0.20857738 -0.18200012 -0.42574838 -0.09430961 -0.060944527
-0.05299885 -0.5484069 0.060127232 -0.09129566 -0.17127723 -0.028581752 -0.22472997 -0.026932012
-0.04635463 -0.46442196 -0.060395252 -0.09694152 -0.044105515 -0.3898896 -0.08413535 -0.24583834
-0.22004342 -1.1542178 -0.23414168 -0.02112214 -0.19502033 -0.45282444 -0.1677373 -0.89485306
-0.0951268 -0.012915502 -0.25102556 -0.21115313 -0.5911429 -0.47509882 -0.0907578 -0.11670945
-0.089317754 -0.06407483 -0.10294005 -0.097583435 -0.07973696 -0.24009517 -0.1175066 -0.21780169
-0.4712985 -0.02438546 -0.84325475 -0.0024007503 -0.0231296 -0.14482753 -0.5577179 -0.23630719
-0.13406016 -0.4020827 -0.01686091 -0.8491156 -0.84315103 0.0068160305 -0.24538995 -0.20180085
-0.58156246 -0.040483397 -0.774206 -0.82752883 -0.3217903 -0.05753475 -0.1590654 -0.25862974
-0.046763908 -0.2320592 -0.21745186 -0.017949913 -0.2785885 -0.3661334 -0.12976843 -0.023380661
-0.018008076 -0.5261751 -0.17469904 -0.20056912 -0.19006094 -0.87861145 -1.0190667 -0.031689797
-0.040485106 -0.012908265 -0.44770288 -0.17721573 -0.8826928 -0.024549842 -0.97275424 -0.07218637
-0.10022742 -0.017090896 -0.2804004 -0.13311772 -0.24041481 -0.038182423 -0.11864437 -0.23488308
-0.72847885 -0.10196642 -0.029455265 -0.08338937 0.0023564496 -0.09050511 -0.11826228 -0.13049172
-0.14468582 -0.063081175 -0.14933099 -0.5300068 -0.14984567 -0.5417823 -0.37208202 -0.19937225
-0.06063559 -0.13477471 -0.13632931 -0.08266946 -1.1044044 -0.2163536 -0.030613225 -0.774833
-0.018140059 -0.029306348 -0.02249482 -0.0068573086 -0.09008884 -0.312384 0.01683515 -0.08645639
-0.25084892 -0.020311158 -0.086983494 -0.16237587 0.033244897 -0.11292203 -0.046153467 -0.21858746
00000000: 4059 2fbf ebb0 30be 6727 8dbd 2e85 2bbc
00000010: 0620 85bf 1639 13bd d818 b4bd cfda 17be
00000020: f601 3dbe e476 b0be fc0b 16bd 4218 c7bd
00000030: ca00 80be c970 7bbe 09a4 6abf aac4 22be
00000040: 7468 87bd 26b8 77bc 6dec 0cbe cd63 ddbd
00000050: fed6 d0bd 7976 87bf 6767 33bf 4eb3 28bf
00000060: 8fcd 1fbe 0b14 f9bd 4558 91bd f737 babe
00000070: 6c7c 94bb 9425 abbc 9fd8 2cbe 16a9 18bb
00000080: 549d 0cbc fba4 36bd 99d3 94bf 9d87 3cbd
00000090: f7fb 79be 7c60 f0bd 0be2 c83b 8e0a 7bbd
000000a0: f14e 8a3b 63ff d7bd 5f31 d3bd 49a7 193d
000000b0: b3b8 02be ed3d 9ebe 8608 8fbe 4199 13bf
000000c0: 9f76 5dbe dc48 20be f3e0 47bf 0f1b e3bc
000000d0: dbec f5bd 4500 6cbe a1f7 b13c c8f4 bcbe
000000e0: 5064 24bf 6bf0 98bd 2c0b 6dbe b982 17bd
000000f0: 1d7b b3bd 676d 27be e0c1 edbe 61b9 15bd
00000100: b8b7 36be bede 9ebc e6a5 03bc 3825 f4bd
00000110: c92f d9bd abd9 50bf a76f 55be df1e a3bd
00000120: 181e afbc ce7b c53c 390c 75bf 9bf3 61be
00000130: d914 32bf 2e6f 24be edbe 58be 7584 7ebd
00000140: 8bef 23bb d4a3 e6bc 1d1a 9fbe 14e4 d0be
00000150: 2fe4 4abe f944 edbd c084 c5bd 8e10 0dbe
00000160: 54b1 2fbd 4c52 83bd e98c 64be 83b3 1cbf
00000170: 392f 75bf 5690 b3be 5438 08be 23ad 31be
00000180: 293b debd 1ca6 41be 80d8 14bd 7054 85bc
00000190: afd5 a8bd d215 b6bd e26e 96bc 6e4e 10b2
000001a0: cf5c cbbd 3b98 78bd 1ac0 22b3 4e64 e2bd
000001b0: df71 8bbd 4c3d b8bd 2f25 8b3c 958f 2abf
000001c0: 3a03 00bf 37ca d2be a1a1 32be 4f95 55be
000001d0: 3d5e 3abe b1fb d9be 6625 c1bd f8a0 79bd
000001e0: 5215 59bd 6564 0cbf f947 763d 38f9 babd
000001f0: 4c63 2fbe 4724 eabc 9d1f 66be 86a0 dcbc
00000200: 5ade 3dbd b7c8 edbe 0361 77bd 4789 c6bd
00000210: fca7 34bd 9c9f c7be 284f acbd 0cbd 7bbe
00000220: 1053 61be 69bd 93bf d6c2 6fbe 5708 adbc
00000230: 69b3 47be 9bd8 e7be 54c3 2bbe 1715 65bf
00000240: d7d1 c2bd 8b9b 53bc 6c86 80be 8738 58be
00000250: 2455 17bf 2740 f3be 3adf b9bd 5d05 efbd
00000260: 3aec b6bd aa39 83bd 3cd2 d2bd d3d9 c7bd
00000270: 224d a3bd 82db 75be 4da7 f0bd 6807 5fbe
00000280: 094e f1be 04c4 c7bc 8bdf 57bf e855 1dbb
00000290: 497a bdbc ab4d 14be 9ac6 0ebf 83fa 71be
000002a0: 1147 09be c9dd cdbe e41f 8abc a45f 59bf
000002b0: bfd8 57bf 0259 df3b 8147 7bbe e2a4 4ebe
000002c0: 47e1 14bf ebd1 25bd 5d32 46bf eed8 53bf
000002d0: b3c1 a4be 8fa9 6bbd 0ae2 22be 1e6b 84be
000002e0: 838b 3fbd eda0 6dbe b3ab 5ebe b20b 93bc
000002f0: 27a3 8ebe d675 bbbe 04e2 04be cd88 bfbc
00000300: ac85 93bc 69b3 06bf 4ee4 32be fe61 4dbe
00000310: 569f 42be aeec 60bf c770 82bf 29cd 01bd
00000320: b6d3 25bd 307d 53bc 5039 e5be 0a78 35be
00000330: 28f8 61bf c01c c9bc 6c06 79bf 73d6 93bd
00000340: 0944 cdbd 3502 8cbc a490 8fbe 0350 08be
00000350: 4d2f 76be 2c65 1cbd d2fb f2bd 3185 70be
00000360: 977d 3abf c5d3 d0bd 2b4c f1bc 0cc8 aabd
00000370: aa6e 1a3b be5a b9bd 7f33 f2bd 9f9f 05be
00000380: 8528 14be b430 81bd 39ea 18be 87ae 07bf
00000390: 2571 19be 3fb2 0abf 8981 bebe 3d28 4cbe
000003a0: 065d 78bd 6202 0abe e999 0bbe 9b4e a9bd
000003b0: 205d 8dbf cc8b 5dbe 96c8 fabc 755b 46bf
000003c0: 769a 94bc de13 f0bc 0f47 b8bc 46b3 e0bb
000003d0: 7f80 b8bd ccf0 9fbe dee9 893c 0c10 b1bd
000003e0: 456f 80be 9663 a6bc 6724 b2bd dc45 26be
000003f0: cd2b 083d aa43 e7bd 6b0b 3dbd 64d5 5fbe

w_season_mu f4 [34]
-5.2484587e-08 2.1734586e-07 3.7372922e-06 1.685672e-07 -1.952927e-08 -9.671708e-07 1.05697e-06 -3.1780628e-06
-0.00016924251 8.223119e-07 -9.995006e-07 1.9425402e-06 3.076281e-05 9.370149e-07 1.967761e-07 1.4192747e-07
1.5051995e-06 -1.2846432e-06 -2.9065424e-07 -2.1808285e-07 -0.0005678405 7.1395993e-06 -3.394384e-07 -3.4868597e-05
-1.2056893e-06 -0.00011555868 2.574974e-07 -3.346089e-05 -2.0030751e-07 -3.0139645e-05 4.9453865e-06 3.1067466e-06
-7.150317e-06 6.082861e-07
00000000: 6a6b 61b3 935f 6934 31ce 7a36 66ff 3434
00000010: 52c1 a7b2 bccf 81b5 36dd 8d35 b446 55b6
00000020: b176 31b9 d8bc 5c35 9426 86b5 965c 0236
00000030: 5107 0138 2c87 7b35 6749 5334 ba64 1834
00000040: 4306 ca35 016c acb5 370b 9cb4 282a 6ab4
00000050: 22db 14ba b190 ef36 0f3c b6b4 df3f 12b8
00000060: 2bd3 a1b5 1858 f2b8 2c3e 8a34 5b58 0cb8
00000070: 1c14 57b4 65d4 fcb7 8cf0 a536 807d 5036
00000080: c1ec efb6 1a49 2335

w_season_logstd f4 [34]
3.40818e-08 -4.1578282e-08 -5.0898013e-08 3.6575056e-08 -3.3832677e-08 2.8957427e-08 -5.8869688e-08 -3.0376516e-08
1.0147159e-08 -5.0767934e-08 -5.5495235e-09 -1.0974501e-08 -3.507645e-08 -4.5300503e-08 1.6984252e-08 -3.6904808e-08
2.812577e-08 4.4048104e-08 9.44878e-09 -4.998388e-08 4.9457032e-08 -2.8756377e-08 1.214033e-08 2.7452089e-08
3.501254e-08 -6.5596044e-09 4.23505e-08 -6.346421e-08 4.819924e-09 4.919124e-09 -4.064284e-08 5.8294958e-08
2.573587e-08 -7.92e-08
00000000: 5661 1233 ce93 32b3 f59a 5ab3 b316 1d33
00000010: 6c4f 11b3 0ebe f832 e8d7 7cb3 5577 02b3
00000020: ad53 2e32 ef0b 5ab3 20ae beb1 5e8a 3cb2
00000030: f7a6 16b3 6e90 42b3 c4e4 9132 4481 1eb3
00000040: 3999 f132 672f 3d33 2d54 2232 dbad 56b3
00000050: 956a 5433 f103 f7b2 bc91 5032 c8cf eb32
00000060: b260 1633 e462 e1b1 dee4 3533 d249 88b3
00000070: 809c a531 1305 a931 468f 2eb3 fc5f 7a33
00000080: c711 dd32 a914 aab3

delta_mu f4 [34, 16, 11]
0.0 8.515853e-10 5.918741e-06 0.6395989 0.0 0.0 0.0 0.0
0.0 0.0 0.0 0.0 0.29994377 0.105665505 -5.1213145e-09 0.0
0.0 0.0 0.0 0.0 0.0 0.0 0.0 0.70850104
-0.56237465 0.0 0.0 0.0 0.0 0.0 0.0 0.0
0.0 0.0 0.2543034 0.44138113 -1.1414012 0.0 0.0 0.0
0.0 0.0 0.0 0.0 0.0 0.00010632565 -1.4644891e-07 0.5657291
0.0 0.0 0.0 0.0 0.0 0.0 0.0 0.0
-1.2300141 2.3131993e-06 -0.0033189221 0.0 0.0 0.0 0.0 0.0
0.0 0.0 0.0 0.0 0.0 0.0 0.0 0.0
0.0 0.0 0.0 0.0 0.0 0.0 0.0 0.0
0.0 0.0 0.0 0.0 0.0 0.0 0.0 0.0
0.0 0.0 0.0 0.0 0.0 0.0 0.0 0.0
0.0 0.0 0.0 0.0 0.0 0.0 0.0 0.0
0.0 0.0 0.0 0.0 0.0 0.0 0.0 0.0
0.0 0.0 0.0 0.0 0.0 0.0 0.0 0.0
0.0 0.0 0.0 0.0 0.0 0.0 0.0 0.0
0.0 0.0 0.0 0.0 0.0 0.0 0.0 0.0
0.0 0.0 0.0 0.0 0.0 0.0 0.0 0.0
0.0 0.0 0.0 0.0 0.0 0.0 0.0 0.0
0.0 0.0 0.0 0.0 0.0 5.372533e-05 0.0 0.0
0.0 0.0 0.0 0.0 0.0 0.0 0.0 0.0
0.0 0.0 0.0 0.0 0.0 0.0 0.0 0.0
0.038633604 -0.7165057 4.434862e-08 -9.61862e-08 1.2176751e-07 -3.7989474e-09 1.120687e-10 0.0
0.0 0.0 0.0 0.0013468873 0.0490685 0.0591446 0.095933475 -0.7108269
0.0 3.2401132e-08 0.0 0.0 0.0 0.0 0.11026202 0.034822956
0.07133555 0.22969398 0.3388372 -0.581999 0.0 0.0 0.0 0.0
0.0 0.03939037 0.2922717 0.030296117 0.07241047 0.31680515 0.27223143 -1.2858044
0.0 0.0 0.0 0.0 -1.9688905e-11 -1.8856723e-09 -9.83115e-10 0.00031869154
1.866748e-09 0.003584073 0.051224012 0.0 0.0 0.0 0.0 0.0003503041
-9.422841e-09 0.026480181 2.70316e-08 0.021346338 0.28707546 1.1181334 0.0 0.0
0.0 0.0 0.019010112 0.1628862 -0.99447405 2.8908204e-07 -8.0700005e-08 6.595436e-05
0.00039014846 0.0 0.0 0.0 0.0 0.2726985 0.20117241 0.75394523
00000000: 0000 0000 fd14 6a30 9999 c636 c1bc 233f
00000010: 0000 0000 0000 0000 0000 0000 0000 0000
00000020: 0000 0000 0000 0000 0000 0000 0000 0000
00000030: 3b92 993e 2867 d83d 8ff7 afb1 0000 0000
00000040: 0000 0000 0000 0000 0000 0000 0000 0000
00000050: 0000 0000 0000 0000 0000 0000 5360 353f
00000060: c9f7 0fbf 0000 0000 0000 0000 0000 0000
00000070: 0000 0000 0000 0000 0000 0000 0000 0000
00000080: 0000 0000 0000 0000 0e34 823e b5fc e13e
00000090: 6f19 92bf 0000 0000 0000 0000 0000 0000
000000a0: 0000 0000 0000 0000 0000 0000 0000 0000
000000b0: 0000 0000 26fb de38 923f 1db4 9fd3 103f
000000c0: 0000 0000 0000 0000 0000 0000 0000 0000
000000d0: 0000 0000 0000 0000 0000 0000 0000 0000
000000e0: 1a71 9dbf 763c 1b36 4682 59bb 0000 0000
000000f0: 0000 0000 0000 0000 0000 0000 0000 0000
00000100: 0000 0000 0000 0000 0000 0000 0000 0000
00000110: 0000 0000 0000 0000 0000 0000 0000 0000
00000120: 0000 0000 0000 0000 0000 0000 0000 0000
00000130: 0000 0000 0000 0000 0000 0000 0000 0000
00000140: 0000 0000 0000 0000 0000 0000 0000 0000
00000150: 0000 0000 0000 0000 0000 0000 0000 0000
00000160: 0000 0000 0000 0000 0000 0000 0000 0000
00000170: 0000 0000 0000 0000 0000 0000 0000 0000
00000180: 0000 0000 0000 0000 0000 0000 0000 0000
00000190: 0000 0000 0000 0000 0000 0000 0000 0000
000001a0: 0000 0000 0000 0000 0000 0000 0000 0000
000001b0: 0000 0000 0000 0000 0000 0000 0000 0000
000001c0: 0000 0000 0000 0000 0000 0000 0000 0000
000001d0: 0000 0000 0000 0000 0000 0000 0000 0000
000001e0: 0000 0000 0000 0000 0000 0000 0000 0000
000001f0: 0000 0000 0000 0000 0000 0000 0000 0000
00000200: 0000 0000 0000 0000 0000 0000 0000 0000
00000210: 0000 0000 0000 0000 0000 0000 0000 0000
00000220: 0000 0000 0000 0000 0000 0000 0000 0000
00000230: 0000 0000 0000 0000 0000 0000 0000 0000
00000240: 0000 0000 0000 0000 0000 0000 0000 0000
00000250: 0000 0000 0000 0000 0000 0000 0000 0000
00000260: 0000 0000 0000 0000 0000 0000 0000 0000
00000270: 0000 0000 2257 6138 0000 0000 0000 0000
00000280: 0000 0000 0000 0000 0000 0000 0000 0000
00000290: 0000 0000 0000 0000 0000 0000 0000 0000
000002a0: 0000 0000 0000 0000 0000 0000 0000 0000
000002b0: 0000 0000 0000 0000 0000 0000 0000 0000
000002c0: 453e 1e3d eb6c 37bf d379 3e33 ec8e ceb3
000002d0: 33bf 0234 e587 82b1 1271 f62e 0000 0000
000002e0: 0000 0000 0000 0000 0000 0000 0a8a b03a
000002f0: 0dfc 483d 9c41 723d c578 c43d c0f8 35bf
00000300: 0000 0000 6c29 0b33 0000 0000 0000 0000
00000310: 0000 0000 0000 0000 0ed1 e13d 84a2 0e3d
00000320: 5f18 923d e634 6b3e 127c ad3e e3fd 14bf
00000330: 0000 0000 0000 0000 0000 0000 0000 0000
00000340: 0000 0000 cc57 213d a3a4 953e 902f f83c
00000350: f14b 943d 4934 a23e eb61 8b3e 3d95 a4bf
00000360: 0000 0000 0000 0000 0000 0000 0000 0000
00000370: 792f adad 1995 01b1 491e 87b0 0e16 a739
00000380: 2e48 0031 c4e2 6a3b 45d0 513d 0000 0000
00000390: 0000 0000 0000 0000 0000 0000 05a9 b739
000003a0: 18e2 21b2 f7ec d83c 1e33 e832 84de ae3c
000003b0: 8efb 923e ff1e 8f3f 0000 0000 0000 0000
000003c0: 0000 0000 0000 0000 18bb 9b3c a4cb 263e
000003d0: da95 7ebf 2233 9b34 4c4d adb3 fa50 8a38
000003e0: d78c cc39 0000 0000 0000 0000 0000 0000
000003f0: 0000 0000 239f 8b3e 2400 4e3e 8e02 413f

delta_logstd f4 [34, 16, 11]
1.7643462e-08 9.500868e-09 -0.00017706958 -0.26841295 1.7643462e-08 1.7643462e-08 1.7643462e-08 1.7643462e-08
1.7643462e-08 1.7643462e-08 1.7643462e-08 1.7643462e-08 -0.1591456 -0.097275734 -6.773208e-09 1.7643462e-08
1.7643462e-08 1.7643462e-08 1.7643462e-08 1.7643462e-08 1.7643462e-08 1.7643462e-08 1.7643462e-08 -0.36196923
-0.23648822 1.7643462e-08 1.7643462e-08 1.7643462e-08 1.7643462e-08 1.7643462e-08 1.7643462e-08 1.7643462e-08
1.7643462e-08 1.7643462e-08 -0.11996506 -0.24896333 -0.41898194 1.7643462e-08 1.7643462e-08 1.7643462e-08
1.7643462e-08 1.7643462e-08 1.7643462e-08 1.7643462e-08 1.7643462e-08 -0.00013644913 -2.6873258e-07 -0.25258943
1.7643462e-08 1.7643462e-08 1.7643462e-08 1.7643462e-08 1.7643462e-08 1.7643462e-08 1.7643462e-08 1.7643462e-08
-0.44607127 3.9700256e-09 -1.8961008e-09 1.7643462e-08 1.7643462e-08 1.7643462e-08 1.7643462e-08 1.7643462e-08
1.7643462e-08 1.7643462e-08 1.7643462e-08 1.7643462e-08 1.7643462e-08 1.7643462e-08 1.7643462e-08 1.7643462e-08
1.7643462e-08 1.7643462e-08 1.7643462e-08 1.7643462e-08 1.7643462e-08 1.7643462e-08 1.7643462e-08 1.7643462e-08
1.7643462e-08 1.7643462e-08 1.7643462e-08 1.7643462e-08 1.7643462e-08 1.7643462e-08 1.7643462e-08 1.7643462e-08
1.7643462e-08 1.7643462e-08 1.7643462e-08 1.7643462e-08 1.7643462e-08 1.7643462e-08 1.7643462e-08 1.7643462e-08
1.7643462e-08 1.7643462e-08 1.7643462e-08 1.7643462e-08 1.7643462e-08 1.7643462e-08 1.7643462e-08 1.7643462e-08
1.7643462e-08 1.7643462e-08 1.7643462e-08 1.7643462e-08 1.7643462e-08 1.7643462e-08 1.7643462e-08 1.7643462e-08
1.7643462e-08 1.7643462e-08 1.7643462e-08 1.7643462e-08 1.7643462e-08 1.7643462e-08 1.7643462e-08 1.7643462e-08
1.7643462e-08 1.7643462e-08 1.7643462e-08 1.7643462e-08 1.7643462e-08 1.7643462e-08 1.7643462e-08 1.7643462e-08
1.7643462e-08 1.7643462e-08 1.7643462e-08 1.7643462e-08 1.7643462e-08 1.7643462e-08 1.7643462e-08 1.7643462e-08
1.7643462e-08 1.7643462e-08 1.7643462e-08 1.7643462e-08 1.7643462e-08 1.7643462e-08 1.7643462e-08 1.7643462e-08
1.7643462e-08 1.7643462e-08 1.7643462e-08 1.7643462e-08 1.7643462e-08 1.7643462e-08 1.7643462e-08 1.7643462e-08
1.7643462e-08 1.7643462e-08 1.7643462e-08 1.7643462e-08 1.7643462e-08 2.7440093e-08 1.7643462e-08 1.7643462e-08
1.7643462e-08 1.7643462e-08 1.7643462e-08 1.7643462e-08 1.7643462e-08 1.7643462e-08 1.7643462e-08 1.7643462e-08
1.7643462e-08 1.7643462e-08 1.7643462e-08 1.7643462e-08 1.7643462e-08 1.7643462e-08 1.7643462e-08 1.7643462e-08
-0.046308056 -0.25928718 2.7459457e-08 2.5384768e-08 2.1534374e-08 1.693689e-08 2.335932e-08 1.7643462e-08
1.7643462e-08 1.7643462e-08 1.7643462e-08 -0.0010110575 -0.053873103 -0.05549814 -0.036090463 -0.290041
1.7643462e-08 2.204712e-08 1.7643462e-08 1.7643462e-08 1.7643462e-08 1.7643462e-08 -0.12138081 -0.060343996
-0.06896763 -0.16957296 -0.24089949 -0.37814632 1.7643462e-08 1.7643462e-08 1.7643462e-08 1.7643462e-08
1.7643462e-08 -0.02944358 -0.17564808 -0.042974394 -0.041908693 -0.24031976 -0.12592448 -0.5079573
1.7643462e-08 1.7643462e-08 1.7643462e-08 1.7643462e-08 4.9730393e-09 2.02674e-08 -2.41076e-08 -0.00030862016
1.7642952e-08 -0.0028088551 -0.019366885 1.7643462e-08 1.7643462e-08 1.7643462e-08 1.7643462e-08 1.440128e-08
-1.7480177e-08 -0.021859134 -5.6661276e-05 -0.0016896947 -0.22773847 -0.55109876 1.7643462e-08 1.7643462e-08
1.7643462e-08 1.7643462e-08 -0.0092947865 -0.10972996 -0.39185834 -3.6816804e-08 2.7142294e-08 -3.7317704e-08
-0.0020868343 1.7643462e-08 1.7643462e-08 1.7643462e-08 1.7643462e-08 -0.039158814 -0.18404146 -0.27198434
00000000: 628e 9732 4239 2332 c1ab 39b9 6c6d 89be
00000010: 628e 9732 628e 9732 628e 9732 628e 9732
00000020: 628e 9732 628e 9732 628e 9732 628e 9732
00000030: 10f7 22be 8038 c7bd c5b9 e8b1 628e 9732
00000040: 628e 9732 628e 9732 628e 9732 628e 9732
00000050: 628e 9732 628e 9732 628e 9732 0854 b9be
00000060: f829 72be 628e 9732 628e 9732 628e 9732
00000070: 628e 9732 628e 9732 628e 9732 628e 9732
00000080: 628e 9732 628e 9732 3eb0 f5bd 3ef0 7ebe
00000090: cd84 d6be 628e 9732 628e 9732 628e 9732
000000a0: 628e 9732 628e 9732 628e 9732 628e 9732
000000b0: 628e 9732 c913 0fb9 5346 90b4 6753 81be
000000c0: 628e 9732 628e 9732 628e 9732 628e 9732
000000d0: 628e 9732 628e 9732 628e 9732 628e 9732
000000e0: 7463 e4be b768 8831 8f4c 02b1 628e 9732
000000f0: 628e 9732 628e 9732 628e 9732 628e 9732
00000100: 628e 9732 628e 9732 628e 9732 628e 9732
00000110: 628e 9732 628e 9732 628e 9732 628e 9732
00000120: 628e 9732 628e 9732 628e 9732 628e 9732
00000130: 628e 9732 628e 9732 628e 9732 628e 9732
00000140: 628e 9732 628e 9732 628e 9732 628e 9732
00000150: 628e 9732 628e 9732 628e 9732 628e 9732
00000160: 628e 9732 628e 9732 628e 9732 628e 9732
00000170: 628e 9732 628e 9732 628e 9732 628e 9732
00000180: 628e 9732 628e 9732 628e 9732 628e 9732
00000190: 628e 9732 628e 9732 628e 9732 628e 9732
000001a0: 628e 9732 628e 9732 628e 9732 628e 9732
000001b0: 628e 9732 628e 9732 628e 9732 628e 9732
000001c0: 628e 9732 628e 9732 628e 9732 628e 9732
000001d0: 628e 9732 628e 9732 628e 9732 628e 9732
000001e0: 628e 9732 628e 9732 628e 9732 628e 9732
000001f0: 628e 9732 628e 9732 628e 9732 628e 9732
00000200: 628e 9732 628e 9732 628e 9732 628e 9732
00000210: 628e 9732 628e 9732 628e 9732 628e 9732
00000220: 628e 9732 628e 9732 628e 9732 628e 9732
00000230: 628e 9732 628e 9732 628e 9732 628e 9732
00000240: 628e 9732 628e 9732 628e 9732 628e 9732
00000250: 628e 9732 628e 9732 628e 9732 628e 9732
00000260: 628e 9732 628e 9732 628e 9732 628e 9732
00000270: 628e 9732 67b5 eb32 628e 9732 628e 9732
00000280: 628e 9732 628e 9732 628e 9732 628e 9732
00000290: 628e 9732 628e 9732 628e 9732 628e 9732
000002a0: 628e 9732 628e 9732 628e 9732 628e 9732
000002b0: 628e 9732 628e 9732 628e 9732 628e 9732
000002c0: 84ad 3dbd 4ac1 84be fcdf eb32 b20d da32
000002d0: 97fa b832 9d7c 9132 b0a7 c832 628e 9732
000002e0: 628e 9732 628e 9732 628e 9732 7685 84ba
000002f0: 0baa 5cbd 0552 63bd 98d3 13bd 4180 94be
00000300: 628e 9732 2162 bd32 628e 9732 628e 9732
00000310: 628e 9732 628e 9732 8196 f8bd 442b 77bd
00000320: e73e 8dbd 89a4 2dbe 5bae 76be 659c c1be
00000330: 628e 9732 628e 9732 628e 9732 628e 9732
00000340: 628e 9732 aa33 f1bc 17dd 33be eb05 30bd
00000350: 73a8 2bbd 6216 76be 59f2 00be 7d09 02bf
00000360: 628e 9732 628e 9732 628e 9732 628e 9732
00000370: 51df aa31 7c18 ae32 2c15 cfb2 4cce a1b9
00000380: 438d 9732 c514 38bb 4da7 9ebc 628e 9732
00000390: 628e 9732 628e 9732 628e 9732 8069 7732
000003a0: 5127 96b2 ed11 b3bc 95a7 6db8 bf78 ddba
000003b0: 4634 69be cf14 0dbf 628e 9732 628e 9732
000003c0: 628e 9732 628e 9732 2949 18bc 1aba e0bd
000003d0: a8a1 c8be 8120 1eb3 8926 e932 4047 20b3
000003e0: 45c3 08bb 628e 9732 628e 9732 628e 9732
000003f0: 628e 9732 fe64 20bd 5d75 3cbe 8841 8bbe

X f4 [34, 16, 28]
0.8146425 1.0 1.0 0.0 0.0 0.0 0.0 0.0
0.0 0.0 0.0 0.0 0.0 0.0 0.0 0.0
0.0 0.0 0.0 0.0 0.0 0.0 0.0 0.0
0.0 0.0 0.0 0.0 -0.7109356 1.0 1.0 0.0
0.0 0.0 0.0 0.0 0.0 0.0 0.0 0.0
0.0 0.0 0.0 0.0 0.0 0.0 0.0 0.0
0.0 0.0 0.0 0.0 0.0 0.0 0.0 0.0
0.23346987 1.0 0.0 0.0 1.0 0.0 0.0 0.0
0.0 0.0 0.0 0.0 0.0 0.0 0.0 0.0
0.0 0.0 0.0 0.0 0.0 0.0 0.0 0.0
0.0 0.0 0.0 0.0 -0.27505615 0.0 0.0 0.0
0.0 0.0 0.0 0.0 0.0 0.0 0.0 0.0
0.0 0.0 0.0 1.0 0.0 0.0 0.0 0.0
0.0 0.0 0.0 0.0 0.0 0.0 0.0 0.0
-0.4929959 1.0 0.0 0.0 0.0 0.0 0.0 0.0
0.0 0.0 0.0 0.0 0.0 0.0 0.0 0.0
0.0 0.0 0.0 0.0 0.0 0.0 0.0 1.0
0.0 0.0 0.0 0.0 -0.4929959 1.0 0.0 0.0
0.0 0.0 0.0 0.0 0.0 0.0 0.0 0.0
0.0 0.0 0.0 0.0 0.0 0.0 0.0 0.0
0.0 0.0 0.0 0.0 0.0 0.0 0.0 1.0
0.0 0.0 0.0 0.0 0.0 0.0 0.0 0.0
0.0 0.0 0.0 0.0 0.0 0.0 0.0 0.0
0.0 0.0 0.0 0.0 0.0 0.0 0.0 0.0
0.0 0.0 0.0 0.0 0.0 0.0 0.0 0.0
0.0 0.0 0.0 0.0 0.0 0.0 0.0 0.0
0.0 0.0 0.0 0.0 0.0 0.0 0.0 0.0
0.0 0.0 0.0 0.0 0.0 0.0 0.0 0.0
0.0 0.0 0.0 0.0 0.0 0.0 0.0 0.0
0.0 0.0 0.0 0.0 0.0 0.0 0.0 0.0
0.0 0.0 0.0 0.0 0.0 0.0 0.0 0.0
0.0 0.0 0.0 0.0 0.0 0.0 0.0 0.0
00000000: 698c 503f 0000 803f 0000 803f 0000 0000
00000010: 0000 0000 0000 0000 0000 0000 0000 0000
00000020: 0000 0000 0000 0000 0000 0000 0000 0000
00000030: 0000 0000 0000 0000 0000 0000 0000 0000
00000040: 0000 0000 0000 0000 0000 0000 0000 0000
00000050: 0000 0000 0000 0000 0000 0000 0000 0000
00000060: 0000 0000 0000 0000 0000 0000 0000 0000
00000070: e0ff 35bf 0000 803f 0000 803f 0000 0000
00000080: 0000 0000 0000 0000 0000 0000 0000 0000
00000090: 0000 0000 0000 0000 0000 0000 0000 0000
000000a0: 0000 0000 0000 0000 0000 0000 0000 0000
000000b0: 0000 0000 0000 0000 0000 0000 0000 0000
000000c0: 0000 0000 0000 0000 0000 0000 0000 0000
000000d0: 0000 0000 0000 0000 0000 0000 0000 0000
000000e0: ba12 6f3e 0000 803f 0000 0000 0000 0000
000000f0: 0000 803f 0000 0000 0000 0000 0000 0000
00000100: 0000 0000 0000 0000 0000 0000 0000 0000
00000110: 0000 0000 0000 0000 0000 0000 0000 0000
00000120: 0000 0000 0000 0000 0000 0000 0000 0000
00000130: 0000 0000 0000 0000 0000 0000 0000 0000
00000140: 0000 0000 0000 0000 0000 0000 0000 0000
00000150: 29d4 8cbe 0000 0000 0000 0000 0000 0000
00000160: 0000 0000 0000 0000 0000 0000 0000 0000
00000170: 0000 0000 0000 0000 0000 0000 0000 0000
00000180: 0000 0000 0000 0000 0000 0000 0000 803f
00000190: 0000 0000 0000 0000 0000 0000 0000 0000
000001a0: 0000 0000 0000 0000 0000 0000 0000 0000
000001b0: 0000 0000 0000 0000 0000 0000 0000 0000
000001c0: f569 fcbe 0000 803f 0000 0000 0000 0000
000001d0: 0000 0000 0000 0000 0000 0000 0000 0000
000001e0: 0000 0000 0000 0000 0000 0000 0000 0000
000001f0: 0000 0000 0000 0000 0000 0000 0000 0000
00000200: 0000 0000 0000 0000 0000 0000 0000 0000
00000210: 0000 0000 0000 0000 0000 0000 0000 803f
00000220: 0000 0000 0000 0000 0000 0000 0000 0000
00000230: f569 fcbe 0000 803f 0000 0000 0000 0000
00000240: 0000 0000 0000 0000 0000 0000 0000 0000
00000250: 0000 0000 0000 0000 0000 0000 0000 0000
00000260: 0000 0000 0000 0000 0000 0000 0000 0000
00000270: 0000 0000 0000 0000 0000 0000 0000 0000
00000280: 0000 0000 0000 0000 0000 0000 0000 0000
00000290: 0000 0000 0000 0000 0000 0000 0000 803f
000002a0: 0000 0000 0000 0000 0000 0000 0000 0000
000002b0: 0000 0000 0000 0000 0000 0000 0000 0000
000002c0: 0000 0000 0000 0000 0000 0000 0000 0000
000002d0: 0000 0000 0000 0000 0000 0000 0000 0000
000002e0: 0000 0000 0000 0000 0000 0000 0000 0000
000002f0: 0000 0000 0000 0000 0000 0000 0000 0000
00000300: 0000 0000 0000 0000 0000 0000 0000 0000
00000310: 0000 0000 0000 0000 0000 0000 0000 0000
00000320: 0000 0000 0000 0000 0000 0000 0000 0000
00000330: 0000 0000 0000 0000 0000 0000 0000 0000
00000340: 0000 0000 0000 0000 0000 0000 0000 0000
00000350: 0000 0000 0000 0000 0000 0000 0000 0000
00000360: 0000 0000 0000 0000 0000 0000 0000 0000
00000370: 0000 0000 0000 0000 0000 0000 0000 0000
00000380: 0000 0000 0000 0000 0000 0000 0000 0000
00000390: 0000 0000 0000 0000 0000 0000 0000 0000
000003a0: 0000 0000 0000 0000 0000 0000 0000 0000
000003b0: 0000 0000 0000 0000 0000 0000 0000 0000
000003c0: 0000 0000 0000 0000 0000 0000 0000 0000
000003d0: 0000 0000 0000 0000 0000 0000 0000 0000
000003e0: 0000 0000 0000 0000 0000 0000 0000 0000
000003f0: 0000 0000 0000 0000 0000 0000 0000 0000

J_z f4 [34, 11, 16]
0.73994005 -2.0852857 -0.06726728 0.73994005 0.73994005 -0.06726728 0.0 0.0
0.0 0.0 0.0 0.0 0.0 0.0 0.0 0.0
1.4372777 -0.7802365 -1.5194079 0.9444968 0.2053254 -0.28745556 0.0 0.0
0.0 0.0 0.0 0.0 0.0 0.0 0.0 0.0
0.6298898 -0.044992127 -1.8446772 1.0798111 0.1799685 0.0 0.0 0.0
0.0 0.0 0.0 0.0 0.0 0.0 0.0 0.0
-0.78446454 1.1766968 0.0 0.78446454 -1.1766968 0.0 0.0 0.0
0.0 0.0 0.0 0.0 0.0 0.0 0.0 0.0
1.3821895 -0.4319342 0.0 0.0 -0.9502553 0.0 0.0 0.0
0.0 0.0 0.0 0.0 0.0 0.0 0.0 0.0
-1.0 1.0 0.0 0.0 0.0 0.0 0.0 0.0
0.0 0.0 0.0 0.0 0.0 0.0 0.0 0.0
0.0 0.0 0.0 0.0 0.0 0.0 0.0 0.0
0.0 0.0 0.0 0.0 0.0 0.0 0.0 0.0
0.0 0.0 0.0 0.0 0.0 0.0 0.0 0.0
0.0 0.0 0.0 0.0 0.0 0.0 0.0 0.0
0.0 0.0 0.0 0.0 0.0 0.0 0.0 0.0
0.0 0.0 0.0 0.0 0.0 0.0 0.0 0.0
0.0 0.0 0.0 0.0 0.0 0.0 0.0 0.0
0.0 0.0 0.0 0.0 0.0 0.0 0.0 0.0
0.0 0.0 0.0 0.0 0.0 0.0 0.0 0.0
0.0 0.0 0.0 0.0 0.0 0.0 0.0 0.0
0.89043826 0.12720546 -0.38161638 -0.12720546 0.63602734 0.38161638 0.89043826 -1.9080819
1.1448492 -1.653671 0.0 0.0 0.0 0.0 0.0 0.0
-1.307575 -0.055641487 -0.055641487 -0.5564149 1.6970654 0.19474521 0.4451319 -1.5579617
1.196292 0.0 0.0 0.0 0.0 0.0 0.0 0.0
0.0 0.76736575 -0.1770844 0.5312532 1.0034783 -0.885422 -0.1770844 -2.0659847
1.0034783 0.0 0.0 0.0 0.0 0.0 0.0 0.0
0.0 0.38696373 -0.2503883 0.5463017 0.5463017 0.22762573 0.0 -2.3217824
0.8649778 0.0 0.0 0.0 0.0 0.0 0.0 0.0
0.0 -1.1851875 -0.436648 -0.062378287 1.8089703 -0.81091774 0.0 0.0
0.68616116 0.0 0.0 0.0 0.0 0.0 0.0 0.0
00000000: b66c 3d3f 5275 05c0 6dc3 89bd b66c 3d3f
00000010: b66c 3d3f 6dc3 89bd 0000 0000 0000 0000
00000020: 0000 0000 0000 0000 0000 0000 0000 0000
00000030: 0000 0000 0000 0000 0000 0000 0000 0000
00000040: b7f8 b73f 94bd 47bf f57b c2bf 8bca 713f
00000050: d240 523e 602d 93be 0000 0000 0000 0000
00000060: 0000 0000 0000 0000 0000 0000 0000 0000
00000070: 0000 0000 0000 0000 0000 0000 0000 0000
00000080: 7540 213f aa49 38bd 621e ecbf 4037 8a3f
00000090: aa49 383e 0000 0000 0000 0000 0000 0000
000000a0: 0000 0000 0000 0000 0000 0000 0000 0000
000000b0: 0000 0000 0000 0000 0000 0000 0000 0000
000000c0: abd2 48bf 009e 963f 0000 0000 abd2 483f
000000d0: 009e 96bf 0000 0000 0000 0000 0000 0000
000000e0: 0000 0000 0000 0000 0000 0000 0000 0000
000000f0: 0000 0000 0000 0000 0000 0000 0000 0000
00000100: 96eb b03f 7b26 ddbe 0000 0000 0000 0000
00000110: ee43 73bf 0000 0000 0000 0000 0000 0000
00000120: 0000 0000 0000 0000 0000 0000 0000 0000
00000130: 0000 0000 0000 0000 0000 0000 0000 0000
00000140: 0000 80bf 0000 803f 0000 0000 0000 0000
00000150: 0000 0000 0000 0000 0000 0000 0000 0000
00000160: 0000 0000 0000 0000 0000 0000 0000 0000
00000170: 0000 0000 0000 0000 0000 0000 0000 0000
00000180: 0000 0000 0000 0000 0000 0000 0000 0000
00000190: 0000 0000 0000 0000 0000 0000 0000 0000
000001a0: 0000 0000 0000 0000 0000 0000 0000 0000
000001b0: 0000 0000 0000 0000 0000 0000 0000 0000
000001c0: 0000 0000 0000 0000 0000 0000 0000 0000
000001d0: 0000 0000 0000 0000 0000 0000 0000 0000
000001e0: 0000 0000 0000 0000 0000 0000 0000 0000
000001f0: 0000 0000 0000 0000 0000 0000 0000 0000
00000200: 0000 0000 0000 0000 0000 0000 0000 0000
00000210: 0000 0000 0000 0000 0000 0000 0000 0000
00000220: 0000 0000 0000 0000 0000 0000 0000 0000
00000230: 0000 0000 0000 0000 0000 0000 0000 0000
00000240: 0000 0000 0000 0000 0000 0000 0000 0000
00000250: 0000 0000 0000 0000 0000 0000 0000 0000
00000260: 0000 0000 0000 0000 0000 0000 0000 0000
00000270: 0000 0000 0000 0000 0000 0000 0000 0000
00000280: 0000 0000 0000 0000 0000 0000 0000 0000
00000290: 0000 0000 0000 0000 0000 0000 0000 0000
000002a0: 0000 0000 0000 0000 0000 0000 0000 0000
000002b0: 0000 0000 0000 0000 0000 0000 0000 0000
000002c0: c3f3 633f 2642 023e 3963 c3be 2642 02be
000002d0: b0d2 223f 3963 c33e c3f3 633f 073c f4bf
000002e0: 6b8a 923f 7eab d3bf 0000 0000 0000 0000
000002f0: 0000 0000 0000 0000 0000 0000 0000 0000
00000300: 9e5e a7bf 54e8 63bd 54e8 63bd 3571 0ebf
00000310: 7039 d93f 4a6b 473e 54e8 e33e 4a6b c7bf
00000320: 1920 993f 0000 0000 0000 0000 0000 0000
00000330: 0000 0000 0000 0000 0000 0000 0000 0000
00000340: 0000 0000 1572 443f 9d55 35be 3600 083f
00000350: fa71 803f 04ab 62bf 9d55 35be 1839 04c0
00000360: fa71 803f 0000 0000 0000 0000 0000 0000
00000370: 0000 0000 0000 0000 0000 0000 0000 0000
00000380: 0000 0000 1c20 c63e e532 80be 6eda 0b3f
00000390: 6eda 0b3f b816 693e 0000 0000 1598 14c0
000003a0: 2f6f 5d3f 0000 0000 0000 0000 0000 0000
000003b0: 0000 0000 0000 0000 0000 0000 0000 0000
000003c0: 0000 0000 39b4 97bf 5490 dfbe 6080 7fbd
000003d0: 578c e73f 4e98 4fbf 0000 0000 0000 0000
000003e0: 42a8 2f3f 0000 0000 0000 0000 0000 0000
000003f0: 0000 0000 0000 0000 0000 0000 0000 0000

active_mask f4 [34, 11, 16]
1.0 1.0 1.0 1.0 1.0 1.0 0.0 0.0
0.0 0.0 0.0 0.0 0.0 0.0 0.0 0.0
1.0 1.0 1.0 1.0 1.0 1.0 0.0 0.0
0.0 0.0 0.0 0.0 0.0 0.0 0.0 0.0
1.0 1.0 1.0 1.0 1.0 0.0 0.0 0.0
0.0 0.0 0.0 0.0 0.0 0.0 0.0 0.0
1.0 1.0 0.0 1.0 1.0 0.0 0.0 0.0
0.0 0.0 0.0 0.0 0.0 0.0 0.0 0.0
1.0 1.0 0.0 0.0 1.0 0.0 0.0 0.0
0.0 0.0 0.0 0.0 0.0 0.0 0.0 0.0
1.0 1.0 0.0 0.0 0.0 0.0 0.0 0.0
0.0 0.0 0.0 0.0 0.0 0.0 0.0 0.0
0.0 0.0 0.0 0.0 0.0 0.0 0.0 0.0
0.0 0.0 0.0 0.0 0.0 0.0 0.0 0.0
0.0 0.0 0.0 0.0 0.0 0.0 0.0 0.0
0.0 0.0 0.0 0.0 0.0 0.0 0.0 0.0
0.0 0.0 0.0 0.0 0.0 0.0 0.0 0.0
0.0 0.0 0.0 0.0 0.0 0.0 0.0 0.0
0.0 0.0 0.0 0.0 0.0 0.0 0.0 0.0
0.0 0.0 0.0 0.0 0.0 0.0 0.0 0.0
0.0 0.0 0.0 0.0 0.0 0.0 0.0 0.0
0.0 0.0 0.0 0.0 0.0 0.0 0.0 0.0
1.0 1.0 1.0 1.0 1.0 1.0 1.0 1.0
1.0 1.0 0.0 0.0 0.0 0.0 0.0 0.0
1.0 1.0 1.0 1.0 1.0 1.0 1.0 1.0
1.0 0.0 0.0 0.0 0.0 0.0 0.0 0.0
0.0 1.0 1.0 1.0 1.0 1.0 1.0 1.0
1.0 0.0 0.0 0.0 0.0 0.0 0.0 0.0
0.0 1.0 1.0 1.0 1.0 1.0 0.0 1.0
1.0 0.0 0.0 0.0 0.0 0.0 0.0 0.0
0.0 1.0 1.0 1.0 1.0 1.0 0.0 0.0
1.0 0.0 0.0 0.0 0.0 0.0 0.0 0.0
00000000: 0000 803f 0000 803f 0000 803f 0000 803f
00000010: 0000 803f 0000 803f 0000 0000 0000 0000
00000020: 0000 0000 0000 0000 0000 0000 0000 0000
00000030: 0000 0000 0000 0000 0000 0000 0000 0000
00000040: 0000 803f 0000 803f 0000 803f 0000 803f
00000050: 0000 803f 0000 803f 0000 0000 0000 0000
00000060: 0000 0000 0000 0000 0000 0000 0000 0000
00000070: 0000 0000 0000 0000 0000 0000 0000 0000
00000080: 0000 803f 0000 803f 0000 803f 0000 803f
00000090: 0000 803f 0000 0000 0000 0000 0000 0000
000000a0: 0000 0000 0000 0000 0000 0000 0000 0000
000000b0: 0000 0000 0000 0000 0000 0000 0000 0000
000000c0: 0000 803f 0000 803f 0000 0000 0000 803f
000000d0: 0000 803f 0000 0000 0000 0000 0000 0000
000000e0: 0000 0000 0000 0000 0000 0000 0000 0000
000000f0: 0000 0000 0000 0000 0000 0000 0000 0000
00000100: 0000 803f 0000 803f 0000 0000 0000 0000
00000110: 0000 803f 0000 0000 0000 0000 0000 0000
00000120: 0000 0000 0000 0000 0000 0000 0000 0000
00000130: 0000 0000 0000 0000 0000 0000 0000 0000
00000140: 0000 803f 0000 803f 0000 0000 0000 0000
00000150: 0000 0000 0000 0000 0000 0000 0000 0000
00000160: 0000 0000 0000 0000 0000 0000 0000 0000
00000170: 0000 0000 0000 0000 0000 0000 0000 0000
00000180: 0000 0000 0000 0000 0000 0000 0000 0000
00000190: 0000 0000 0000 0000 0000 0000 0000 0000
000001a0: 0000 0000 0000 0000 0000 0000 0000 0000
000001b0: 0000 0000 0000 0000 0000 0000 0000 0000
000001c0: 0000 0000 0000 0000 0000 0000 0000 0000
000001d0: 0000 0000 0000 0000 0000 0000 0000 0000
000001e0: 0000 0000 0000 0000 0000 0000 0000 0000
000001f0: 0000 0000 0000 0000 0000 0000 0000 0000
00000200: 0000 0000 0000 0000 0000 0000 0000 0000
00000210: 0000 0000 0000 0000 0000 0000 0000 0000
00000220: 0000 0000 0000 0000 0000 0000 0000 0000
00000230: 0000 0000 0000 0000 0000 0000 0000 0000
00000240: 0000 0000 0000 0000 0000 0000 0000 0000
00000250: 0000 0000 0000 0000 0000 0000 0000 0000
00000260: 0000 0000 0000 0000 0000 0000 0000 0000
00000270: 0000 0000 0000 0000 0000 0000 0000 0000
00000280: 0000 0000 0000 0000 0000 0000 0000 0000
00000290: 0000 0000 0000 0000 0000 0000 0000 0000
000002a0: 0000 0000 0000 0000 0000 0000 0000 0000
000002b0: 0000 0000 0000 0000 0000 0000 0000 0000
000002c0: 0000 803f 0000 803f 0000 803f 0000 803f
000002d0: 0000 803f 0000 803f 0000 803f 0000 803f
000002e0: 0000 803f 0000 803f 0000 0000 0000 0000
000002f0: 0000 0000 0000 0000 0000 0000 0000 0000
00000300: 0000 803f 0000 803f 0000 803f 0000 803f
00000310: 0000 803f 0000 803f 0000 803f 0000 803f
00000320: 0000 803f 0000 0000 0000 0000 0000 0000
00000330: 0000 0000 0000 0000 0000 0000 0000 0000
00000340: 0000 0000 0000 803f 0000 803f 0000 803f
00000350: 0000 803f 0000 803f 0000 803f 0000 803f
00000360: 0000 803f 0000 0000 0000 0000 0000 0000
00000370: 0000 0000 0000 0000 0000 0000 0000 0000
00000380: 0000 0000 0000 803f 0000 803f 0000 803f
00000390: 0000 803f 0000 803f 0000 0000 0000 803f
000003a0: 0000 803f 0000 0000 0000 0000 0000 0000
000003b0: 0000 0000 0000 0000 0000 0000 0000 0000
000003c0: 0000 0000 0000 803f 0000 803f 0000 803f
000003d0: 0000 803f 0000 803f 0000 0000 0000 0000
000003e0: 0000 803f 0000 0000 0000 0000 0000 0000
000003f0: 0000 0000 0000 0000 0000 0000 0000 0000

exp_avg f4 [28]
0.16822675 -0.22235541 -0.1744753 0.0049170307 -0.40955007 -0.00040587442 0.34216765 0.03873453
-0.04539844 -0.05006721 0.0052200267 0.04977952 0.0071658646 -0.0014635628 0.0075879158 0.27035198
-0.035015345 0.009846985 -0.057232037 0.005556215 0.008206083 0.018398477 0.011225852 0.09313022
-0.000941449 0.009457161 -0.032637686 -0.042629268
00000000: a243 2c3e 23b1 63be a7a9 32be 0b1f a13b
00000010: 8cb0 d1be 8bcb d4b9 9930 af3e 19a8 1e3d
00000020: b7f3 39bd 4613 4dbd c20c ab3b 9ce5 4b3d
00000030: a1cf ea3b 05d5 bfba 0da4 f83b 936b 8a3e
00000040: 406c 0fbd 4055 213c 246c 6abd e910 b63b
00000050: cf72 063c 67b8 963c a3ec 373c 0fbb be3d
00000060: 93cb 76ba 35f2 1a3c 18af 05bd 079c 2ebd

exp_avg_sq f4 [28]
9.395133 1.1803802 2.331169 0.00039951384 0.9918075 0.0017833106 0.3019851 0.10886855
0.016357623 0.13995185 0.0007120613 0.036935706 0.0004960759 2.2779921e-05 0.0019223443 0.469454
0.0017509094 0.00072869856 0.090797015 0.15396786 0.006957771 0.007098818 0.0041493573 0.9966933
0.2844645 0.019144012 0.014626056 1.6195
00000000: 7752 1641 b316 973f df31 1540 d775 d139
00000010: 19e7 7d3f f9bd e93a cb9d 9a3e 79f6 de3d
00000020: 6c00 863c 8a4f 0f3e a0a9 3a3a e549 173d
00000030: 170b 023a 8217 bf37 2cf7 fb3a 465c f03e
00000040: c57e e53a 2206 3f3a c9f3 b93d c0a9 1d3e
00000050: 03fe e33b 349d e83b 55f7 873b 4b27 7f3f
00000060: 55a5 913e e7d3 9c3c 20a2 6f3c c74b cf3f

exp_avg f4 [28]
-0.06878608 -0.049250126 -0.012390081 0.0010945692 -0.040550772 0.007857221 0.030877056 -0.012841074
0.03816514 -0.05160933 0.0066735493 -0.043246675 0.0060970085 -0.0014679063 -0.0012126872 -0.07458215
0.0331218 0.010377461 -0.052796993 -0.04641291 -0.005374661 -0.01799442 0.019687109 -0.03261097
-0.063916504 -0.008519154 -0.018016819 -0.030377418
00000000: b7df 8cbd 80ba 49bd c4ff 4abc a677 8f3a
00000010: 9118 26bd 93bb 003c e1f1 fc3c 5e63 52bc
00000020: 0d53 1c3d 4e64 53bd caad da3b 6d23 31bd
00000030: 6ac9 c73b c366 c0ba 08f3 9eba 87be 98bd
00000040: b9aa 073d 3a06 2a3c a941 58bd 771b 3ebd
00000050: ed1d b0bb 0969 93bc dc46 a13c 1593 05bd
00000060: a8e6 82bd ec93 0bbc 0298 93bc 10da f8bc

exp_avg_sq f4 [28]
0.28718138 0.063199565 0.100925714 0.00060840213 0.040170826 0.0023206633 0.03479632 0.034145426
0.01911174 0.030162737 0.0012731222 0.032953177 0.0011462297 4.8777187e-05 0.0018208862 0.032513224
0.001980655 0.0008134493 0.014416403 0.023177333 0.012082698 0.004418554 0.0058740904 0.05563795
0.030909475 0.02353966 0.008595546 0.056042966
00000000: 7009 933e c66e 813d 24b2 ce3d 2d7d 1f3a
00000010: 2a8a 243d 4516 183b 9686 0e3d 13dc 0b3d
00000020: 3990 9c3c d817 f73c e4de a63a e9f9 063d
00000030: 163d 963a 1b96 4c38 cdaa ee3a 962c 053d
00000040: e0cd 013b a93d 553a c732 6c3c 64de bd3c
00000050: 82f6 453c 84c9 903b 717b c03b 9ee4 633d
00000060: de35 fd3c 3fd6 c03c 55d4 0c3c 4f8d 653d

exp_avg f4 [60]
0.34792918 0.02508866 -0.02237948 0.00092176266 -0.031764943 0.011044606 -0.040577233 0.10569842
-0.028667348 0.1305514 -0.00040587442 -0.28817546 -0.051217344 0.042838614 0.077559054 0.04889775
-0.008081239 -0.13926862 0.040251117 -0.17295013 -0.0263208 0.13587746 -0.007780175 0.28246507
0.17476578 0.03873453 -0.049304843 -0.0019191082 -0.3743677 9.898625e-09 0.0005454256 0.042522788
-0.26061627 0.004439133 0.0896512 0.029415524 -0.039045107 -0.015505324 -0.023154587 -0.0011213619
-0.033485126 0.06085636 -0.03694091 -0.3465968 -0.025260808 -0.03800692 -0.031380318 0.037786696
0.04128086 -0.007933369 -0.12576173 0.20229664 -0.0035302653 -0.0019651758 -0.007746273 -0.022545943
0.009457161 0.27031535 0.0856496 -0.035761468
00000000: c623 b23e bc86 cd3c 2c55 b7bc 72a2 713a
00000010: f51b 02bd 6ff4 343c 5034 26bd 6a78 d83d
00000020: c9d7 eabc 44af 053e 8bcb d4b9 bc8b 93be
00000030: 47c9 51bd 8b77 2f3d 48d7 9e3d 0249 483d
00000040: 2c67 04bc 6f9c 0ebe 5bde 243d d719 31be
00000050: b89e d7bc 7623 0b3e d7f0 febb 439f 903e
00000060: cdf5 323e 19a8 1e3d e0f3 49bd 968a fbba
00000070: 20ad bfbe 9d0e 2a32 e4fa 0e3a 602c 2e3d
00000080: 7f6f 85be 2676 913b 0c9b b73d d3f8 f03c
00000090: c3ed 1fbd 0b0a 7ebc b0ae bdbc a9fa 92ba
000000a0: b327 09bd 8544 793d 5a4f 17bd 2375 b1be
000000b0: c1ef cebc 25ad 1bbd a688 00bd 39c6 1a3d
000000c0: 1e16 293d f6fa 01bc afc7 00be da26 4f3e
000000d0: 065c 67bb 2eca 00bb 73d4 fdbb 45b2 b8bc
000000e0: 35f2 1a3c c666 8a3e 0f69 af3d 9e7a 12bd

exp_avg_sq f4 [60]
0.39754605 0.0423778 0.015739853 0.0057940716 0.0129708825 0.00041353775 0.055665366 0.1431576
0.06100562 0.5738604 0.0017833106 0.36329976 0.015414596 0.009759259 0.23206653 0.002346246
0.00075618556 0.41916624 0.053706814 0.0664999 0.0029399544 0.08401484 0.0018482065 0.45909575
0.20445256 0.10886855 0.013962844 0.0011778892 0.7319301 3.324844e-10 2.2281982e-05 0.11435313
0.27753454 0.0007574266 0.08558253 0.015987951 0.035687305 0.089216076 0.21444078 0.00035326256
0.022837866 0.010206083 0.18643703 0.2283322 0.05769659 0.14976825 0.019205758 0.6003933
0.49681312 0.29375428 0.30779204 0.17372261 0.026583644 0.0030501613 0.00064402394 0.055802464
0.019144012 0.2589296 0.13653138 0.023318596
00000000: 288b cb3e 5894 2d3d ddf0 803c 32dc bd3b
00000010: d383 543c 19d0 d839 5e01 643d e897 123e
00000020: 07e1 793d 84e8 123f f9bd e93a 6d02 ba3e
00000030: 808d 7c3c 4de5 1f3c d9a2 6d3e 7ac3 193b
00000040: c13a 463a f59c d63e adfb 5b3d 1931 883d
00000050: 40ac 403b f90f ac3d 853f f23a 990e eb3e
00000060: 035c 513e 79f6 de3d 6ac4 643c 6763 9a3a
00000070: c55f 3b3f 05c9 b62f 31ea ba37 f931 ea3d
00000080: 0219 8e3e 0a8e 463a e545 af3d 2af9 823c
00000090: da2c 123d ebb6 b63d 5d96 5b3e 1936 b939
000000a0: 7a16 bb3c 6a37 273c 59e9 3e3e ebcf 693e
000000b0: 4253 6c3d d95c 193e 6555 9d3c 60b3 193f
000000c0: 4a5e fe3e f666 963e eb96 9d3e 57e4 313e
000000d0: f1c5 d93c 37e5 473b b7d3 283a 2091 643d
000000e0: e7d3 9c3c 6c92 843e e2ce 0b3e a406 bf3c
