task1/outputs/run_torch/checkpoint_epoch2000.pt (torch, 289643 bytes, 33 tensors)

beta_mu f4 [28]
-0.43628994 0.3941924 0.08092792 -0.1119716 0.37710905 -0.4396668 0.18702643 -0.7421281
0.23436938 -0.71949095 -0.12678969 0.74589926 -0.054534193 -0.06545928 0.49408212 -1.6604528
0.75744385 0.36117935 -0.4302174 0.64162815 0.25977635 0.79358846 -0.26918364 0.023779577
-0.42166224 0.22528155 -0.15810889 0.080233626
00000000: 6561 dfbe 96d3 c93e 8abd a53d 5e51 e5bd
00000010: 7014 c13e 021c e1be db83 3f3e 1bfc 3dbf
00000020: 87fe 6f3e 8f30 38bf 28d5 01be 41f3 3e3f
00000030: 3f5f 5fbd 840f 86bd 55f8 fc3e b889 d4bf
00000040: d7e7 413f 80ec b83e 7445 dcbe be41 243f
00000050: 6801 853e 9d28 4b3f 70d2 89be 63cd c23c
00000060: 1de4 d7be 35b0 663e 4ce7 21be 8751 a43d

beta_logstd f4 [28]
-2.71582 -1.7973038 -2.1221724 -0.06815677 -1.7541884 -0.14519443 -0.9976471 -0.604923
-0.15853678 -0.9107515 -0.06195272 -0.40348724 -0.005533906 -0.00603567 -0.1559629 -1.3786288
-0.0032739667 0.0048663933 -0.7235522 -0.939495 -0.26187447 -0.3319956 -0.14143045 -1.8796223
-1.1479747 -0.1680488 -0.35179228 -2.1102474
00000000: ffcf 2dc0 0d0e e6bf acd1 07c0 c795 8bbd
00000010: 3f89 e0bf d9ad 14be cd65 7fbf 3cdc 1abf
00000020: 7757 22be 0327 69bf 23c2 7dbd e195 cebe
00000030: c555 b5bb dfc6 c5bb bdb4 1fbe e976 b0bf
00000040: 0c90 56bb 4476 9f3b b83a 39bf bf82 70bf
00000050: 6914 86be 54fb a9be 25d3 10be 7797 f0bf
00000060: d6f0 92bf fc14 2cbe 1e1e b4be 4b0e 07c0

u_pro_mu f4 [60]
0.29607925 0.8668795 -0.26732823 -0.040858407 -0.58946085 0.102513246 0.21117626 0.02302594
0.69613725 -1.0182968 -0.4396668 -0.50751543 0.5960047 -0.33033532 0.6466546 -0.09951905
0.018248778 0.7794856 0.98458976 0.3179793 0.21371968 0.39317855 -0.2489588 -0.24170922
1.4011269 -0.7421281 0.19625801 -0.11190774 -0.8651943 -9.7834004e-08 -0.044551745 -0.52408135
-0.20297147 -0.12614466 -0.69757134 0.13981505 -0.10679663 -0.9839798 0.27667227 -0.08611506
0.21333829 0.3586172 1.6347026 -0.751478 0.036700197 -0.32279778 -0.8803303 -0.7969944
-0.41668448 0.73183835 -0.20694786 0.25622764 -0.20186903 -0.03354602 -0.10662795 -0.32678849
0.22528155 -0.03496027 0.5415738 0.37206355
00000000: b397 973e d1eb 5d3f 3fdf 88be 255b 27bd
00000010: e8e6 16bf 77f2 d13d 973e 583e e5a0 bc3c
00000020: 0d36 323f 8d57 82bf 021c e1be 88ec 01bf
00000030: c493 183f b621 a9be 288b 253f a5d0 cbbd
00000040: 767e 953c 5e8c 473f 130e 7c3f 2fce a23e
00000050: 55d9 5a3e b34e c93e 0eef 7ebe 9f82 77be
00000060: 2058 b33f 1bfc 3dbf dcf7 483e e32f e5bd
00000070: 607d 5dbf d018 d2b3 e47b 36bd 322a 06bf
00000080: c1d7 4fbe 112c 01be 0994 32bf ad2b 0f3e
00000090: 31b8 dabd 1ae6 7bbf fda7 8d3e 185d b0bd
000000a0: 5a75 5a3e ac9c b73e ef3d d13f dd60 40bf
000000b0: f252 163d c045 a5be 545d 61bf d307 4cbf
000000c0: ab57 d5be c259 3b3f 24ea 53be 4530 833e
000000d0: c1b6 4ebe 8d67 09bd c15f dabd d250 a7be
000000e0: 35b0 663e 8032 0fbd 95a4 0a3f 1d7f be3e

u_pro_logstd f4 [60]
-1.3208737 -0.43289873 -0.47458804 -0.32455006 -0.25384858 0.044355072 -0.7360341 -0.88481283
-0.8772373 -1.465705 -0.25600454 -1.2875714 -0.16869615 -0.42210796 -1.2616479 -0.052267354
-0.0027946762 -1.2217426 -0.42055774 -1.0740503 -0.11414775 -0.97981805 -0.0963969 -1.4970765
-0.823436 -0.7595907 -0.14114814 -0.098362595 -1.5852252 -2.9140198e-08 -0.0047800182 -0.7787979
-1.2446178 -0.030297175 -0.6905305 -0.5503461 -0.91701424 -0.7376327 -0.9973567 -0.03972552
-0.636474 -0.3461354 -1.1242143 -1.1503663 -0.98049706 -1.0753509 -0.44259915 -1.5343034
-1.4841839 -1.3167021 -1.2959509 -1.1429179 -0.50815326 -0.13272816 -0.060502842 -0.49155107
-0.10423102 -1.2834812 -0.96666765 -0.29987213
00000000: 6412 a9bf e7a4 ddbe 34fd f2be 6d2b a6be
00000010: 71f8 81be aaad 353d bb6c 3cbf 1883 62bf
00000020: a092 60bf 399c bbbf 0713 83be 24cf a4bf
00000030: afbe 2cbe 891e d8be ae7d a1bf 4b16 56bd
00000040: e326 37bb 1062 9cbf 5853 d7be 7b7a 89bf
00000050: 4cc6 e9bd 5bd5 7abf bd6b c5bd 34a0 bfbf
00000060: b4cc 52bf 8974 42bf 2389 10be 5472 c9bd
00000070: a9e8 cabf f94f fab2 b3a1 9cbb 4d5f 47bf
00000080: a34f 9fbf c831 f8bc 9bc6 30bf 7be3 0cbf
00000090: 72c1 6abf 7fd5 3cbf c552 7fbf 3ab7 22bd
000000a0: f6ef 22bf a938 b1be 41e6 8fbf 343f 93bf
000000b0: db01 7bbf 19a5 89bf 5b9c e2be 0e64 c4bf
000000c0: bdf9 bdbf b289 a8bf b8e1 a5bf 224b 92bf
000000d0: 5516 02bf e4e9 07be d4d1 77bd 95ac fbbe
000000e0: 1377 d5bd 1d49 a4bf 8877 77bf d788 99be

v_celeb_mu f4 [408]
-0.71361214 -0.4277488 -0.07538357 0.06536603 -1.2532201 -0.21982564 -0.23855379 0.49408212
-0.5833229 -0.32526934 0.3031777 0.3505348 0.22528155 0.24500288 1.4503549 0.41167238
0.44034958 0.010969063 0.5506539 0.012975076 -0.1899712 1.4011269 -0.7421281 -0.4678577
-0.069474585 -0.16021024 0.3737247 0.40365198 -0.108247936 -0.12747036 -0.5602562 0.016420353
-0.0022289364 0.004936954 0.908004 -0.09671416 -0.045923926 -0.12678969 0.32831943 -0.10662795
0.0045118434 0.15341038 0.5648858 0.32736757 0.05157621 -0.29292628 -0.22190025 -0.027446609
0.7216468 0.25287735 -0.33043092 -0.1119716 0.24819279 -0.20624405 0.5606361 -0.5542877
0.10025372 0.027221022 -0.08618891 -0.0030759952 0.12850435 0.18545291 -1.0571364 0.18089616
-0.33838764 -0.039457187 -0.006124251 -0.08025734 0.5191693 0.4235798 -0.2858232 -0.16571634
0.058402907 0.21273445 0.044683065 -0.54608506 -1.096718 -0.27540442 -0.38296798 -0.05584238
0.02488078 -0.11499544 -0.08817053 0.74589926 -0.4194136 0.49599335 -0.24480584 0.51398647
-0.16875212 -0.18607552 -0.32007003 0.60387105 0.10734816 0.42630056 -0.31525993 -0.18014942
-0.12846132 0.7555094 -0.011942386 -0.043119714 -0.21892144 -0.28068554 -0.15751842 -9.7834004e-08
0.6116052 0.49253756 6.96955e-07 -0.056261092 -0.12675601 -0.07293978 0.106531665 -0.14625353
0.98458976 0.8668795 -0.37695125 -0.5493209 0.2840833 0.70153767 -0.108459644 0.4138262
0.19529326 0.16305569 0.22102661 -0.13280049 -0.2948682 0.38689303 0.17563972 -0.02175692
-0.08104996 0.23722224 -0.054534193 0.43308586 0.40868556 -0.7774761 -0.085454434 0.35176626
-0.45976835 1.0746635 -0.44524437 -0.023902407 -0.8397988 0.35243753 0.41605374 -0.8275475
0.34665504 -0.0032512916 0.14061958 -0.022651333 1.0896538 0.8289723 0.058106724 0.26702958
0.61818653 -0.24019563 0.401653 -0.08245284 -0.25405928 -0.39498731 0.4347274 -0.1961076
-0.14437525 -0.11146516 -1.8409512 0.2525519 0.035901565 0.45334136 -1.061412 0.40354425
0.3864252 0.6121805 -0.06763412 -0.52408135 -1.611782 0.016530097 -0.3721604 0.42145595
1.4591687 0.077144146 -0.7226953 -0.514671 0.20186736 0.08897131 -0.11170575 -0.6341575
-0.07075295 -0.15713027 0.17348953 0.35545504 0.48608267 0.5960047 -0.12108904 -0.088193394
-0.09875594 -0.40232214 -0.3673391 0.19625801 0.28115922 -0.28096142 -1.6270429 0.094748825
-0.038928173 0.11743144 0.6964337 0.36687374 -0.7669451 -0.13588087 0.14648668 -0.04432869
0.614615 -0.046629436 0.16290407 0.24081437 0.7458998 0.49242538 -0.1439721 -0.58946085
0.2151954 -0.23377408 -0.09337573 -0.16571344 0.0041934783 0.8375889 0.3263917 -0.40976217
-0.026520142 0.49672094 0.2084747 -0.011622464 0.34058642 0.95881593 -0.48874438 0.2537513
-0.059158895 -0.20686473 -0.033925463 -0.09675061 -0.7425947 -0.34277722 0.36117935 -0.10371396
-0.01689158 -0.1446029 0.033279505 -0.076639324 -0.08987951 -0.96592146 0.69158226 -0.08726828
-0.48036048 0.33808506 0.3026813 -0.15463859 0.018740887 -0.11665639 -0.11190774 -0.16455129
00000000: 49af 36bf e401 dbbe b362 9abd a0de 853d
00000010: 8469 a0bf f919 61be 7247 74be 55f8 fc3e
00000020: a654 15bf b489 a6be 1c3a 9b3e 4c79 b33e
00000030: 35b0 663e 09e2 7a3e 3ba5 b93f b9c6 d23e
00000040: 8075 e13e 96b7 333c a7f7 0c3f 6a95 543c
00000050: cf87 42be 2058 b33f 1bfc 3dbf 0b8b efbe
00000060: b148 8ebd 270e 24be d858 bf3e 79ab ce3e
00000070: 18b1 ddbd 9787 02be f36c 0fbf fa83 863c
00000080: 5913 12bb 2cc6 a13b f372 683f 1312 c6bd
00000090: ba1a 3cbd 28d5 01be 7c19 a83e c15f dabd
000000a0: 16d8 933b 9c17 1d3e 5b9c 103f b99c a73e
000000b0: 9341 533d 6ffa 95be d239 63be b6d7 e0bc
000000c0: d8bd 383f 2479 813e 3e2e a9be 5e51 e5bd
000000d0: 4026 7e3e a431 53be d985 0f3f cce5 0dbf
000000e0: d351 cd3d 9ffe de3c d083 b0bd a396 49bb
000000f0: a596 033e 5ee7 3d3e 3f50 87bf d83c 393e
00000100: 2541 adbe dc9d 21bd f1ad c8bb f65d a4bd
00000110: 47e8 043f 74df d83e 6b57 92be 8bb1 29be
00000120: e337 6f3d 0fd7 593e 9705 373d 3bcc 0bbf
00000130: 4161 8cbf cf01 8dbe 6114 c4be fbba 64bd
00000140: c7d2 cb3c bb82 ebbd c092 b4bd 41f3 3e3f
00000150: 61bd d6be d7f2 fd3e 62ae 7abe 9e94 033f
00000160: 5bcd 2cbe 958a 3ebe 38e0 a3be 4b97 1a3f
00000170: 5ad9 db3d 1144 da3e c069 a1be 1779 38be
00000180: 5d8b 03be 1069 413f ffa9 43bc 4c9e 30bd
00000190: f12c 60be 04b6 8fbe 824c 21be d018 d2b3
000001a0: 2992 1c3f e22d fc3e 6216 3b35 0872 66bd
000001b0: 54cc 01be 7461 95bd 462d da3d 7cc3 15be
000001c0: 130e 7c3f d1eb 5d3f c1ff c0be 4ba0 0cbf
000001d0: 5e73 913e f997 333f 1720 debd 07e1 d33e
000001e0: f5fa 473e 12f8 263e cd54 623e dafc 07be
000001f0: f7f8 96be d816 c63e e6da 333e 913b b2bc
00000200: 85fd a5bd 63ea 723e 3f5f 5fbd 6ebd dd3e
00000210: 3c3f d13e ac08 47bf bc02 afbd b51a b43e
00000220: c266 ebbe 938e 893f 12f7 e3be fbce c3bc
00000230: 0efd 56bf b172 b43e ff04 d53e 27da 53bf
00000240: c57c b13e 9f13 55bb 94fe 0f3e 4a8f b9bc
00000250: c779 8b3f 8737 543f 5101 6e3d 1ab8 883e
00000260: 7941 1e3f d8f5 75be 76a5 cd3e 09dd a8bd
00000270: 0f14 82be c73b cabe 9794 de3e 6ed0 48be
00000280: 1bd7 13be d947 e4bd 4aa4 ebbf 7c4e 813e
00000290: 850d 133d 5c1c e83e 59dc 87bf 5a9d ce3e
000002a0: 86d9 c53e dcb7 1c3f c283 8abd 322a 06bf
000002b0: df4e cebf 206a 873c cf8b bebe 13c9 d73e
000002c0: 0ac6 ba3f c0fd 9d3d 8f02 39bf 7bc1 03bf
000002d0: 51b6 4e3e 9736 b63d fcc5 e4bd 2558 22bf
000002e0: ece6 90bd c2e6 20be 3da7 313e 34fe b53e
000002f0: d4df f83e c493 183f 88fd f7bd bd9e b4bd
00000300: 8e40 cabd 2bfd cdbe df13 bcbe dcf7 483e
00000310: 1af4 8f3e 2dda 8fbe f142 d0bf ac0b c23d
00000320: 2673 1fbd e57f f03d 7b49 323f e0d6 bb3e
00000330: 8456 44bf 5b24 0bbe 9b00 163e 0092 35bd
00000340: 6957 1d3f 82fe 3ebd 53d0 263e 0b98 763e
00000350: 4af3 3e3f 2e1f fc3e 6c6d 13be e8e6 16bf
00000360: 2f5c 5c3e 7962 6fbe c63b bfbd c9b0 29be
00000370: 7269 893b 3a6c 563f d01c a73e 59cc d1be
00000380: c540 d9bc 3552 fe3e 647a 553e 266c 3ebc
00000390: 5861 ae3e f674 753f b43c fabe b1eb 813e
000003a0: 9950 72bd 59d4 53be 6df5 0abd 2f25 c6bd
000003b0: b01a 3ebf 7f80 afbe 80ec b83e fc67 d4bd
000003c0: 3660 8abc c812 14be 1750 083d 14f5 9cbd
000003d0: c012 b8bd a146 77bf 890b 313f b6b9 b2bd
000003e0: cff1 f5be 7c19 ad3e 0bf9 9a3e 9459 1ebe
000003f0: 7d86 993c 8ce9 eebd e32f e5bd 2280 28be

v_celeb_logstd f4 [408]
-0.63127303 -0.22088775 -0.025796859 -0.03733271 -0.9822024 -0.17873044 -0.11263715 -0.04092892
-0.20882334 -0.2589623 0.0194462 -0.08482314 -0.1311665 -0.1763946 -0.58867645 -0.2600317
-0.08419175 0.0045380327 -0.09983399 -0.04069997 -0.20464173 -0.8120312 -0.80758995 -0.6800426
-0.14556225 -0.10799028 -0.025541736 -0.33670804 -0.0025651609 -0.037460085 -0.2365745 0.011587648
-0.00067391794 -0.0045579155 -0.9990676 -0.01748011 -0.19502419 -0.03612968 0.04353021 -0.03848155
-0.0008426008 -0.04241537 -0.10893166 0.021740615 -0.16120912 -0.2638672 -0.17027487 -0.46982557
-0.059366036 -0.11295779 -0.75918823 -0.05907351 -0.08936348 -0.210194 0.06781621 -0.36922082
-0.5033206 -0.03298257 -0.19159873 0.001597816 -0.13165976 -0.17475319 -0.63073075 -0.19095157
-0.26122853 -0.020717397 0.003623791 -0.041784357 -0.07564178 -0.8851436 -0.11907276 -0.07733486
0.003406631 0.012629758 -0.8470804 -0.16815186 -0.6958265 -0.116839096 -0.21384369 -0.047373854
-0.013291083 -0.06995224 -0.22742689 -0.32753745 -0.18079689 -0.09414308 -0.19615105 -0.11324042
-0.09004122 -0.0896948 -0.17348161 -0.29049176 -1.0390077 -0.3207658 -0.18627822 -0.13398504
-0.040326595 -0.14578834 -0.049484525 -0.006222165 -0.10606371 -0.19849278 -0.09240712 -4.372362e-08
-0.13357379 -0.051800348 2.3032614e-08 -0.059943687 -0.043953493 -0.02895797 0.007832175 -0.7852375
-0.42232156 -0.49821094 -0.18344037 -0.2736001 -0.16122551 -0.36754835 -0.0650754 -0.048787702
-0.11066499 -0.48070213 -0.015175936 -0.108903565 -0.12829204 0.0003694782 -0.14460588 -0.006020749
-0.07338081 -0.53061223 -0.028921451 -0.083613604 0.061005726 -0.4670614 -0.13993318 -0.25517416
-0.20621501 -1.0308611 -0.15959156 -0.020649262 -0.32098937 -0.21179171 -0.13141818 -0.7582151
-0.121677354 0.009533569 -0.16664295 -0.19367811 -0.5319923 -0.3883487 -0.074908815 -0.16766056
-0.11716025 -0.12612277 -0.114623606 -0.04436588 -0.17368568 -0.20479986 -0.06568039 -0.26224092
-0.45015964 -0.02491072 -0.83908355 -0.012613279 -0.043249454 -0.16008148 -0.43427822 -0.27570432
-0.13222797 -0.3672469 -0.043226514 -0.7600252 -0.84349984 -0.0042193434 -0.23611109 -0.08636583
-0.49702054 -0.054155976 -0.76171607 -0.7923273 -0.24706626 -0.14499806 -0.06351543 -0.18487275
-0.042021006 -0.28595605 -0.1581338 -0.04792434 -0.25589353 -0.2435168 -0.09765229 0.001426126
-0.035967894 -0.50020593 -0.14487576 -0.09864796 -0.16457616 -0.61528385 -0.8021753 -0.037544314
-0.01292253 -0.02964501 -0.43146256 -0.17844088 -0.8266985 -0.05828065 -0.82933867 -0.031920355
-0.043062028 -0.05296483 -0.14001891 -0.10373199 -0.10535685 0.008773804 -0.14980826 -0.2577335
-0.6199942 -0.0832835 -0.057943396 -0.09049524 0.0012007415 -0.006185915 -0.096364826 -0.15703982
-0.18524623 -0.13467595 -0.13013324 -0.44437385 -0.097102016 -0.50520605 -0.32881117 -0.11274215
-0.15209453 -0.14195262 -0.10026738 -0.07363789 -0.8649696 -0.26573515 0.0057889987 -0.8262636
-0.0058795605 -0.067652375 -0.0005081855 -0.058627445 -0.04399433 -0.3038859 0.0131567065 -0.09553727
-0.28211012 -0.03752292 -0.08392413 -0.07741692 -0.019340208 -0.06027802 -0.08217557 -0.13180943
00000000: 1c9b 21bf 6630 62be ef53 d3bc 2fea 18bd
00000010: 9e71 7bbf 1d05 37be 4eae e6bd 15a5 27bd
00000020: c9d5 55be b596 84be a34d 9f3c c1b7 adbd
00000030: 8350 06be c9a0 34be 80b3 16bf e022 85be
00000040: b96c acbd c7b3 943b c375 ccbd 03b5 26bd
00000050: 9a8d 51be 47e1 4fbf 37be 4ebf 4617 2ebf
00000060: 450e 15be 022a ddbd e73c d1bc ff64 acbe
00000070: 421c 28bb bf6f 19bd 9640 72be 1eda 3d3c
00000080: dea9 30ba 915a 95bb e5c2 7fbf 7332 8fbc
00000090: 6cb4 47be b7fc 13bd bc4c 323d d49e 1dbd
000000a0: fce1 5cba bdbb 2dbd 9017 dfbd 6019 b23c
000000b0: 0114 25be 9a19 87be 895c 2ebe fa8c f0be
000000c0: cd29 73bd 6a56 e7bd 295a 42bf 11f7 71bd
000000d0: 3304 b7bd 193d 57be 3ae3 8a3d 830a bdbe
000000e0: 9ed9 00bf bb18 07bd 7532 44be cf6d d13a
000000f0: d1d1 06be 80f2 32be 9277 21bf cf88 43be
00000100: bfbf 85be 88b7 a9bc 207d 6d3b 1326 2bbd
00000110: 14ea 9abd c598 62bf 6bdc f3bd bd61 9ebd
00000120: c941 5f3b 0bed 4e3c 43da 58bf 0030 2cbe
00000130: af21 32bf 5649 efbd d7f9 5abe 160b 42bd
00000140: d8c2 59bc 1f43 8fbd 98e2 68be fdb2 a7be
00000150: d222 39be 16ce c0bd d2db 48be 98ea e7bd
00000160: 8867 b8bd e8b1 b7bd 2aa5 31be 56bb 94be
00000170: 34fe 84bf 6a3b a4be b8bf 3ebe 6033 09be
00000180: 802d 25bd 8a49 15be 49b0 4abd 4ee3 cbbb
00000190: ee37 d9bd b141 4bbe f23f bdbd a1ca 3bb3
000001a0: 91c7 08be 9a2c 54bd 41d9 c532 8387 75bd
000001b0: 9408 34bd 4439 edbc 8652 003c 5305 49bf
000001c0: 883a d8be 8115 ffbe cbd7 3bbe 5015 8cbe
000001d0: 4d18 25be 4c2f bcbe 4046 85bd 9dd5 47bd
000001e0: 54a4 e2bd 971e f6be 7da4 78bc d508 dfbd
000001f0: fd5e 03be 86b6 c139 9013 14be b449 c5bb
00000200: ae48 96bd 34d6 07bf aeec ecbc 9c3d abbd
00000210: 24e1 793d ac22 efbe a54a 0fbe 30a6 82be
00000220: 072a 53be 42f3 83bf f86b 23be a428 a9bc
00000230: b858 a4be eddf 58be 7d92 06be 631a 42bf
00000240: fa31 f9bd b032 1c3c 73a4 2abe 8e53 46be
00000250: a630 08bf a4d5 c6be cb69 99bd 36af 2bbe
00000260: b7f1 efbd 5426 01be c8bf eabd ffb8 35bd
00000270: a9da 31be 0eb7 51be 7183 86bd 7144 86be
00000280: 537b e6be 9111 ccbc 2ece 56bf eda7 4ebc
00000290: 5726 31bd 66ec 23be b759 debe 1e29 8dbe
000002a0: c566 07be c907 bcbe 490e 31bd 0391 42bf
000002b0: 9bef 57bf 6b42 8abb 1bc7 71be 91e0 b0bd
000002c0: 7a79 febe a8d2 5dbd d3ff 42bf f6d5 4abf
000002d0: f0fe 7cbe 5f7a 14be 6114 82bd 484f 3dbe
000002e0: 381e 2cbd d568 92be d4ed 21be 504c 44bd
000002f0: 7a04 83be 785c 79be ecfd c7bd d9ec ba3a
00000300: 1253 13bd 7f0d 00bf 505a 14be f107 cabd
00000310: a786 28be 3e83 1dbf 5c5b 4dbf 11c8 19bd
00000320: 05b9 53bc 18da f2bc a9e8 dcbe 35b9 36be
00000330: 83a2 53bf b1b7 6ebd 8a4f 54bf ebbe 02bd
00000340: cf61 30bd a6f1 58bd 1e61 0fbe 7071 d4bd
00000350: 55c5 d7bd 00c0 0f3c 5667 19be a5f5 83be
00000360: f1b7 1ebf 8a90 aabd 0e56 6dbd 9255 b9bd
00000370: 3362 9d3a 37b3 cabb ec5a c5bd 0ccf 20be
00000380: 30b1 3dbe 7ee8 09be a641 05be f884 e3be
00000390: 6cdd c6bd 2f55 01bf f059 a8be 5be5 e6bd
000003a0: abbe 1bbe 075c 11be fc58 cdbd 76cf 96bd
000003b0: a66e 5dbf 700e 88be a4b1 bd3b 0386 53bf
000003c0: 54a9 c0bb 548d 8abd c037 05ba 5523 70bd
000003d0: 6633 34bd ef96 9bbe 3a8f 573c 0ba9 c3bd
000003e0: bd70 90be a2b1 19bd 6ae0 abbd c38c 9ebd
000003f0: 5b6f 9ebc 16e6 76bd aa4b a8bd 0df9 06be

w_season_mu f4 [34]
1.1251977e-06 -1.324882e-06 1.4487166e-07 4.8635883e-08 -4.851716e-06 6.957664e-05 7.580247e-08 5.267334e-07
-1.4851513e-07 -3.9554146e-07 -6.799917e-07 -8.572247e-07 1.1392213e-07 -2.4125811e-05 -6.335064e-07 5.762143e-05
5.0693608e-08 1.1584003e-05 1.7611839e-07 2.5157814e-07 -1.4984192e-07 -4.845599e-08 -3.6149143e-07 1.553775e-06
2.2254352e-07 3.798092e-08 7.860354e-08 5.459576e-07 5.574856e-07 1.6488254e-06 -2.592543e-06 2.7272353e-07
-1.341635e-07 1.6575258e-06
00000000: 8005 9735 99d2 b1b5 058e 1b34 b8e3 5033
00000010: eccb a2b6 ade9 9138 d9c8 a233 d864 0d35
00000020: 8777 1fb4 ce5a d4b4 ac88 36b5 081c 66b5
00000030: 5aa5 f433 c961 cab7 3a0e 2ab5 8aae 7138
00000040: 36ba 5933 ea58 4237 0e1b 3d34 a310 8734
00000050: 3ce4 20b4 ed1d 50b3 0113 c2b4 4d8b d035
00000060: 4cf4 6e34 7720 2333 c1cc a833 ec8d 1235
00000070: 1ea6 1535 364d dd35 8dfb 2db6 d66a 9234
00000080: 950e 10b4 2778 de35

w_season_logstd f4 [34]
-2.6713392e-08 -3.323065e-08 -3.6109405e-08 -1.737027e-08 -1.0807901e-08 3.203866e-08 -3.5605296e-08 1.3163313e-08
3.838968e-08 -4.6730184e-09 -6.391236e-08 -4.7339377e-09 1.3758779e-08 3.070657e-08 2.95327e-08 3.2237953e-08
-1.506886e-08 -2.6444326e-08 -4.4006292e-08 5.2242154e-08 -5.7365664e-08 -1.669735e-08 1.5375063e-08 1.4444452e-08
-1.8494587e-08 -3.2915576e-08 -3.379394e-08 3.5699625e-08 -1.3179889e-09 -7.486365e-08 2.8034228e-07 1.316761e-07
4.9130634e-08 6.474044e-08
00000000: 5f77 e5b2 7cb9 0eb3 b616 1bb3 a135 95b2
00000010: a7ad 39b2 e19a 0933 70ec 18b3 dd24 6232
00000020: e6e1 2433 4e90 a0b1 3140 89b3 28a8 a2b1
00000030: c05f 6c32 3be2 0333 18af fd32 0176 0a33
00000040: c670 81b2 b027 e3b2 6e01 3db3 db60 6033
00000050: 3762 76b3 dc6d 8fb2 1f12 8432 5f27 7832
00000060: 07de 9eb2 0f5f 0db3 d424 11b3 2754 1933
00000070: 9d24 b5b0 bac4 a0b3 f381 9634 da62 0d34
00000080: b403 5333 6f07 8b33

delta_mu f4 [34, 16, 11]
0.0 4.9565685e-08 9.889351e-06 0.5848612 0.0 0.0 0.0 0.0
0.0 0.0 0.0 0.0 0.24053039 0.059667703 -3.6421432e-06 0.0
0.0 0.0 0.0 0.0 0.0 0.0 0.0 0.65980583
-0.48021078 0.0 0.0 0.0 0.0 0.0 0.0 0.0
0.0 0.0 0.27238998 0.37410852 -1.0725027 0.0 0.0 0.0
0.0 0.0 0.0 0.0 0.0 0.00023981949 -2.3552625e-06 0.47196552
0.0 0.0 0.0 0.0 0.0 0.0 0.0 0.0
-1.1873666 -4.234044e-13 -1.6462013e-07 0.0 0.0 0.0 0.0 0.0
0.0 0.0 0.0 1.8646957e-12 0.0 0.0 0.0 0.0
0.0 0.0 0.0 0.0 0.0 0.0 0.0 0.0
0.0 0.0 0.0 0.0 0.0 0.0 0.0 0.0
0.0 0.0 0.0011502098 0.0 0.0 0.0 0.0 0.0
0.0 0.0 0.0 0.0 0.0 0.0 0.0 0.0
0.0 0.0 0.0 0.0 0.0 0.0 0.0 0.0
-2.5596178e-08 0.0 0.0 0.0 0.0 0.0 0.0 0.0
0.0 0.0 0.0 0.0 0.0 0.0 0.0 0.0
0.0 0.0 0.0 0.0 0.0 0.0 1.0099957e-08 0.0
0.0 0.0 0.0 0.0 0.0 0.0 0.0 0.0
0.0 0.0 0.0 0.0 0.0 0.0 0.0 0.0
0.0 0.0 0.0 0.0 0.0 1.2991053e-21 0.0 0.0
0.0 0.0 0.0 0.0 0.0 0.0 0.0 0.0
0.0027950213 0.0 0.0 0.0 0.0 0.0 0.0 0.0
0.0010778994 -0.7110948 -7.066994e-09 1.8709135e-11 4.306221e-09 -1.1200855e-10 7.694206e-09 0.0
0.0 0.0 0.0 0.0065272134 0.13350657 1.7346933e-06 0.0359134 -0.6890151
0.0 2.7664508e-09 0.0 0.0 0.0 0.0 0.09885595 0.060300425
0.08115342 0.28422537 0.32721394 -0.5508352 2.5039967e-07 0.0 0.0 0.0
0.0 0.1213565 0.3170463 0.12053603 0.18523397 0.3121605 0.34888852 -1.2856919
0.0 0.0 0.0 0.0 -1.8736507e-08 -7.374549e-08 8.24574e-10 0.00014496292
4.6926385e-10 -1.6733178e-06 0.015109603 0.0 0.0 0.0 0.0 8.391344e-08
-4.7797673e-08 0.0135180475 2.6757052e-09 0.035158843 0.17959122 1.1743348 0.0 0.0
0.0 0.0 0.15205176 0.10205448 -1.0315397 1.2928457e-06 -3.3255503e-05 -2.7152653e-06
0.000919052 0.0 0.0 0.0 0.0 0.28021955 0.16394533 0.8374447
00000000: 0000 0000 0ce2 5433 70ea 2537 77b9 153f
00000010: 0000 0000 0000 0000 0000 0000 0000 0000
00000020: 0000 0000 0000 0000 0000 0000 0000 0000
00000030: 994d 763e 1f66 743d 8b6b 74b6 0000 0000
00000040: 0000 0000 0000 0000 0000 0000 0000 0000
00000050: 0000 0000 0000 0000 0000 0000 09e9 283f
00000060: 30de f5be 0000 0000 0000 0000 0000 0000
00000070: 0000 0000 0000 0000 0000 0000 0000 0000
00000080: 0000 0000 0000 0000 b376 8b3e 278b bf3e
00000090: c547 89bf 0000 0000 0000 0000 0000 0000
000000a0: 0000 0000 0000 0000 0000 0000 0000 0000
000000b0: 0000 0000 0e78 7b39 1a0f 1eb6 77a5 f13e
000000c0: 0000 0000 0000 0000 0000 0000 0000 0000
000000d0: 0000 0000 0000 0000 0000 0000 0000 0000
000000e0: a1fb 97bf 015b eeaa 70c2 30b4 0000 0000
000000f0: 0000 0000 0000 0000 0000 0000 0000 0000
00000100: 0000 0000 0000 0000 0000 0000 5f37 032c
00000110: 0000 0000 0000 0000 0000 0000 0000 0000
00000120: 0000 0000 0000 0000 0000 0000 0000 0000
00000130: 0000 0000 0000 0000 0000 0000 0000 0000
00000140: 0000 0000 0000 0000 0000 0000 0000 0000
00000150: 0000 0000 0000 0000 0000 0000 0000 0000
00000160: 0000 0000 0000 0000 a3c2 963a 0000 0000
00000170: 0000 0000 0000 0000 0000 0000 0000 0000
00000180: 0000 0000 0000 0000 0000 0000 0000 0000
00000190: 0000 0000 0000 0000 0000 0000 0000 0000
000001a0: 0000 0000 0000 0000 0000 0000 0000 0000
000001b0: 0000 0000 0000 0000 0000 0000 0000 0000
000001c0: 97de dbb2 0000 0000 0000 0000 0000 0000
000001d0: 0000 0000 0000 0000 0000 0000 0000 0000
000001e0: 0000 0000 0000 0000 0000 0000 0000 0000
000001f0: 0000 0000 0000 0000 0000 0000 0000 0000
00000200: 0000 0000 0000 0000 0000 0000 0000 0000
00000210: 0000 0000 0000 0000 1584 2d32 0000 0000
00000220: 0000 0000 0000 0000 0000 0000 0000 0000
00000230: 0000 0000 0000 0000 0000 0000 0000 0000
00000240: 0000 0000 0000 0000 0000 0000 0000 0000
00000250: 0000 0000 0000 0000 0000 0000 0000 0000
00000260: 0000 0000 0000 0000 0000 0000 0000 0000
00000270: 0000 0000 b450 c41c 0000 0000 0000 0000
00000280: 0000 0000 0000 0000 0000 0000 0000 0000
00000290: 0000 0000 0000 0000 0000 0000 0000 0000
000002a0: ad2c 373b 0000 0000 0000 0000 0000 0000
000002b0: 0000 0000 0000 0000 0000 0000 0000 0000
000002c0: 4d48 8d3a 4f0a 36bf f0d1 f2b1 3a91 a42d
000002d0: ecf5 9331 354f f6ae 7a2f 0432 0000 0000
000002e0: 0000 0000 0000 0000 0000 0000 3ce2 d53b
000002f0: f2b5 083e 9cd3 e835 ee19 133d 4b63 30bf
00000300: 0000 0000 eb1b 3e31 0000 0000 0000 0000
00000310: 0000 0000 0000 0000 fd74 ca3d 94fd 763d
00000320: c433 a63d fd85 913e 9688 a73e 8903 0dbf
00000330: ab6e 8634 0000 0000 0000 0000 0000 0000
00000340: 0000 0000 c289 f83d e553 a23e 98db f63d
00000350: f9ad 3d3e 80d3 9f3e 84a1 b23e 8d91 a4bf
00000360: 0000 0000 0000 0000 0000 0000 0000 0000
00000370: 04f2 a0b2 035e 9eb3 3da8 6230 3001 1839
00000380: 82fd 0030 c396 e0b5 458e 773c 0000 0000
00000390: 0000 0000 0000 0000 0000 0000 e733 b433
000003a0: 194a 4db3 cd7a 5d3c 81df 3731 b802 103d
000003b0: c3e6 373e 9a50 963f 0000 0000 0000 0000
000003c0: 0000 0000 0000 0000 75b3 1b3e f001 d13d
000003d0: 7e09 84bf d785 ad35 d37b 0bb8 e737 36b6
000003e0: 89ec 703a 0000 0000 0000 0000 0000 0000
000003f0: 0000 0000 f078 8f3e 49e1 273e c762 563f

delta_logstd f4 [34, 16, 11]
1.7632782e-08 -3.97096e-08 -2.3116841e-05 -0.3194262 1.7632782e-08 1.7632782e-08 1.7632782e-08 1.7632782e-08
1.7632782e-08 1.7632782e-08 1.7632782e-08 1.7632782e-08 -0.13672282 -0.020063588 7.1734894e-07 1.7632782e-08
1.7632782e-08 1.7632782e-08 1.7632782e-08 1.7632782e-08 1.7632782e-08 1.7632782e-08 1.7632782e-08 -0.29066616
-0.26375166 1.7632782e-08 1.7632782e-08 1.7632782e-08 1.7632782e-08 1.7632782e-08 1.7632782e-08 1.7632782e-08
1.7632782e-08 1.7632782e-08 -0.17822337 -0.19712622 -0.29094234 1.7632782e-08 1.7632782e-08 1.7632782e-08
1.7632782e-08 1.7632782e-08 1.7632782e-08 1.7632782e-08 1.7632782e-08 -0.00019758497 -7.866751e-07 -0.18257079
1.7632782e-08 1.7632782e-08 1.7632782e-08 1.7632782e-08 1.7632782e-08 1.7632782e-08 1.7632782e-08 1.7632782e-08
-0.44748655 1.7926004e-08 2.4714144e-08 1.7632782e-08 1.7632782e-08 1.7632782e-08 1.7632782e-08 1.7632782e-08
1.7632782e-08 1.7632782e-08 1.7632782e-08 1.872083e-08 1.7632782e-08 1.7632782e-08 1.7632782e-08 1.7632782e-08
1.7632782e-08 1.7632782e-08 1.7632782e-08 1.7632782e-08 1.7632782e-08 1.7632782e-08 1.7632782e-08 1.7632782e-08
1.7632782e-08 1.7632782e-08 1.7632782e-08 1.7632782e-08 1.7632782e-08 1.7632782e-08 1.7632782e-08 1.7632782e-08
1.7632782e-08 1.7632782e-08 2.703401e-08 1.7632782e-08 1.7632782e-08 1.7632782e-08 1.7632782e-08 1.7632782e-08
1.7632782e-08 1.7632782e-08 1.7632782e-08 1.7632782e-08 1.7632782e-08 1.7632782e-08 1.7632782e-08 1.7632782e-08
1.7632782e-08 1.7632782e-08 1.7632782e-08 1.7632782e-08 1.7632782e-08 1.7632782e-08 1.7632782e-08 1.7632782e-08
1.1553839e-08 1.7632782e-08 1.7632782e-08 1.7632782e-08 1.7632782e-08 1.7632782e-08 1.7632782e-08 1.7632782e-08
1.7632782e-08 1.7632782e-08 1.7632782e-08 1.7632782e-08 1.7632782e-08 1.7632782e-08 1.7632782e-08 1.7632782e-08
1.7632782e-08 1.7632782e-08 1.7632782e-08 1.7632782e-08 1.7632782e-08 1.7632782e-08 -3.08861e-08 1.7632782e-08
1.7632782e-08 1.7632782e-08 1.7632782e-08 1.7632782e-08 1.7632782e-08 1.7632782e-08 1.7632782e-08 1.7632782e-08
1.7632782e-08 1.7632782e-08 1.7632782e-08 1.7632782e-08 1.7632782e-08 1.7632782e-08 1.7632782e-08 1.7632782e-08
1.7632782e-08 1.7632782e-08 1.7632782e-08 1.7632782e-08 1.7632782e-08 3.6215106e-08 1.7632782e-08 1.7632782e-08
1.7632782e-08 1.7632782e-08 1.7632782e-08 1.7632782e-08 1.7632782e-08 1.7632782e-08 1.7632782e-08 1.7632782e-08
3.4059684e-09 1.7632782e-08 1.7632782e-08 1.7632782e-08 1.7632782e-08 1.7632782e-08 1.7632782e-08 1.7632782e-08
-0.00031806718 -0.25603548 -3.3921243e-08 3.4789114e-08 -8.429279e-09 -1.09321325e-08 2.874305e-08 1.7632782e-08
1.7632782e-08 1.7632782e-08 1.7632782e-08 -0.0013436943 -0.1204171 -7.010506e-07 -0.020685364 -0.32923234
1.7632782e-08 -2.5636798e-08 1.7632782e-08 1.7632782e-08 1.7632782e-08 1.7632782e-08 -0.07622781 -0.09933598
-0.061446235 -0.21430084 -0.22080335 -0.2511507 -2.1487205e-08 1.7632782e-08 1.7632782e-08 1.7632782e-08
1.7632782e-08 -0.09424814 -0.24324352 -0.14181054 -0.14585355 -0.13459648 -0.2358639 -0.45116574
1.7632782e-08 1.7632782e-08 1.7632782e-08 1.7632782e-08 2.1391584e-08 3.3759388e-08 -1.1085637e-08 -0.0001872977
-3.135062e-08 2.4278227e-06 -0.02120639 1.7632782e-08 1.7632782e-08 1.7632782e-08 1.7632782e-08 -2.3647337e-08
-1.884148e-08 -0.0084624905 -1.9751912e-08 -0.053302426 -0.114151984 -0.61493754 1.7632782e-08 1.7632782e-08
1.7632782e-08 1.7632782e-08 -0.18075979 -0.051021617 -0.41485074 3.961515e-08 1.2506927e-06 2.4998167e-06
-0.00017171503 1.7632782e-08 1.7632782e-08 1.7632782e-08 1.7632782e-08 -0.11080641 -0.11388 -0.31465414
00000000: e676 9732 2b8d 2ab3 0aeb c1b7 d58b a3be
00000010: e676 9732 e676 9732 e676 9732 e676 9732
00000020: e676 9732 e676 9732 e676 9732 e676 9732
00000030: 1101 0cbe 655c a4bc d88f 4035 e676 9732
00000040: e676 9732 e676 9732 e676 9732 e676 9732
00000050: e676 9732 e676 9732 e676 9732 32d2 94be
00000060: 750a 87be e676 9732 e676 9732 e676 9732
00000070: e676 9732 e676 9732 e676 9732 e676 9732
00000080: e676 9732 e676 9732 3080 36be 75db 49be
00000090: 65f6 94be e676 9732 e676 9732 e676 9732
000000a0: e676 9732 e676 9732 e676 9732 e676 9732
000000b0: e676 9732 d02e 4fb9 e72b 53b5 d6f3 3abe
000000c0: e676 9732 e676 9732 e676 9732 e676 9732
000000d0: e676 9732 e676 9732 e676 9732 e676 9732
000000e0: f51c e5be b3fb 9932 fa4a d432 e676 9732
000000f0: e676 9732 e676 9732 e676 9732 e676 9732
00000100: e676 9732 e676 9732 e676 9732 8acf a032
00000110: e676 9732 e676 9732 e676 9732 e676 9732
00000120: e676 9732 e676 9732 e676 9732 e676 9732
00000130: e676 9732 e676 9732 e676 9732 e676 9732
00000140: e676 9732 e676 9732 e676 9732 e676 9732
00000150: e676 9732 e676 9732 e676 9732 e676 9732
00000160: e676 9732 e676 9732 6b38 e832 e676 9732
00000170: e676 9732 e676 9732 e676 9732 e676 9732
00000180: e676 9732 e676 9732 e676 9732 e676 9732
00000190: e676 9732 e676 9732 e676 9732 e676 9732
000001a0: e676 9732 e676 9732 e676 9732 e676 9732
000001b0: e676 9732 e676 9732 e676 9732 e676 9732
000001c0: 527e 4632 e676 9732 e676 9732 e676 9732
000001d0: e676 9732 e676 9732 e676 9732 e676 9732
000001e0: e676 9732 e676 9732 e676 9732 e676 9732
000001f0: e676 9732 e676 9732 e676 9732 e676 9732
00000200: e676 9732 e676 9732 e676 9732 e676 9732
00000210: e676 9732 e676 9732 a0a7 04b3 e676 9732
00000220: e676 9732 e676 9732 e676 9732 e676 9732
00000230: e676 9732 e676 9732 e676 9732 e676 9732
00000240: e676 9732 e676 9732 e676 9732 e676 9732
00000250: e676 9732 e676 9732 e676 9732 e676 9732
00000260: e676 9732 e676 9732 e676 9732 e676 9732
00000270: e676 9732 ee8a 1b33 e676 9732 e676 9732
00000280: e676 9732 e676 9732 e676 9732 e676 9732
00000290: e676 9732 e676 9732 e676 9732 e676 9732
000002a0: 6e0e 6a31 e676 9732 e676 9732 e676 9732
000002b0: e676 9732 e676 9732 e676 9732 e676 9732
000002c0: 41c2 a6b9 1517 83be cdb0 11b3 096b 1533
000002d0: 5cd0 10b2 07d0 3bb2 a3e6 f632 e676 9732
000002e0: e676 9732 e676 9732 e676 9732 e61e b0ba
000002f0: 3e9d f6bd d52f 3cb5 5a74 a9bc 2491 a8be
00000300: e676 9732 ea37 dcb2 e676 9732 e676 9732
00000310: e676 9732 e676 9732 531d 9cbd aa70 cbbd
00000320: 0caf 7bbd ae71 5bbe 461a 62be d396 80be
00000330: dd92 b8b2 e676 9732 e676 9732 e676 9732
00000340: e676 9732 2b05 c1bd d414 79be c836 11be
00000350: a25a 15be a9d3 09be 4e86 71be 32ff e6be
00000360: e676 9732 e676 9732 e676 9732 e676 9732
00000370: 97c0 b732 d7fe 1033 2673 3eb2 5865 44b9
00000380: 5fa6 06b3 aded 2236 06b9 adbc e676 9732
00000390: e676 9732 e676 9732 e676 9732 0b21 cbb2
000003a0: dad8 a1b2 42a6 0abc eaaa a9b2 a553 5abd
000003b0: 84c8 e9bd 8c6c 1dbf e676 9732 e676 9732
000003c0: e676 9732 e676 9732 1819 39be 0bfc 50bd
000003d0: 5167 d4be 5125 2a33 79dd a735 86c2 2736
000003e0: 670e 34b9 e676 9732 e676 9732 e676 9732
000003f0: e676 9732 79ee e2bd eb39 e9bd 591a a1be

X f4 [34, 16, 28]
0.8146425 1.0 1.0 0.0 0.0 0.0 0.0 0.0
0.0 0.0 0.0 0.0 0.0 0.0 0.0 0.0
0.0 0.0 0.0 0.0 0.0 0.0 0.0 0.0
0.0 0.0 0.0 0.0 -0.7109356 1.0 1.0 0.0
0.0 0.0 0.0 0.0 0.0 0.0 0.0 0.0
0.0 0.0 0.0 0.0 0.0 0.0 0.0 0.0
0.0 0.0 0.0 0.0 0.0 0.0 0.0 0.0
0.23346987 1.0 0.0 0.0 1.0 0.0 0.0 0.0
0.0 0.0 0.0 0.0 0.0 0.0 0.0 0.0
0.0 0.0 0.0 0.0 0.0 0.0 0.0 0.0
0.0 0.0 0.0 0.0 -0.27505615 0.0 0.0 0.0
0.0 0.0 0.0 0.0 0.0 0.0 0.0 0.0
0.0 0.0 0.0 1.0 0.0 0.0 0.0 0.0
0.0 0.0 0.0 0.0 0.0 0.0 0.0 0.0
-0.4929959 1.0 0.0 0.0 0.0 0.0 0.0 0.0
0.0 0.0 0.0 0.0 0.0 0.0 0.0 0.0
0.0 0.0 0.0 0.0 0.0 0.0 0.0 1.0
0.0 0.0 0.0 0.0 -0.4929959 1.0 0.0 0.0
0.0 0.0 0.0 0.0 0.0 0.0 0.0 0.0
0.0 0.0 0.0 0.0 0.0 0.0 0.0 0.0
0.0 0.0 0.0 0.0 0.0 0.0 0.0 1.0
0.0 0.0 0.0 0.0 0.0 0.0 0.0 0.0
0.0 0.0 0.0 0.0 0.0 0.0 0.0 0.0
0.0 0.0 0.0 0.0 0.0 0.0 0.0 0.0
0.0 0.0 0.0 0.0 0.0 0.0 0.0 0.0
0.0 0.0 0.0 0.0 0.0 0.0 0.0 0.0
0.0 0.0 0.0 0.0 0.0 0.0 0.0 0.0
0.0 0.0 0.0 0.0 0.0 0.0 0.0 0.0
0.0 0.0 0.0 0.0 0.0 0.0 0.0 0.0
0.0 0.0 0.0 0.0 0.0 0.0 0.0 0.0
0.0 0.0 0.0 0.0 0.0 0.0 0.0 0.0
0.0 0.0 0.0 0.0 0.0 0.0 0.0 0.0
00000000: 698c 503f 0000 803f 0000 803f 0000 0000
00000010: 0000 0000 0000 0000 0000 0000 0000 0000
00000020: 0000 0000 0000 0000 0000 0000 0000 0000
00000030: 0000 0000 0000 0000 0000 0000 0000 0000
00000040: 0000 0000 0000 0000 0000 0000 0000 0000
00000050: 0000 0000 0000 0000 0000 0000 0000 0000
00000060: 0000 0000 0000 0000 0000 0000 0000 0000
00000070: e0ff 35bf 0000 803f 0000 803f 0000 0000
00000080: 0000 0000 0000 0000 0000 0000 0000 0000
00000090: 0000 0000 0000 0000 0000 0000 0000 0000
000000a0: 0000 0000 0000 0000 0000 0000 0000 0000
000000b0: 0000 0000 0000 0000 0000 0000 0000 0000
000000c0: 0000 0000 0000 0000 0000 0000 0000 0000
000000d0: 0000 0000 0000 0000 0000 0000 0000 0000
000000e0: ba12 6f3e 0000 803f 0000 0000 0000 0000
000000f0: 0000 803f 0000 0000 0000 0000 0000 0000
00000100: 0000 0000 0000 0000 0000 0000 0000 0000
00000110: 0000 0000 0000 0000 0000 0000 0000 0000
00000120: 0000 0000 0000 0000 0000 0000 0000 0000
00000130: 0000 0000 0000 0000 0000 0000 0000 0000
00000140: 0000 0000 0000 0000 0000 0000 0000 0000
00000150: 29d4 8cbe 0000 0000 0000 0000 0000 0000
00000160: 0000 0000 0000 0000 0000 0000 0000 0000
00000170: 0000 0000 0000 0000 0000 0000 0000 0000
00000180: 0000 0000 0000 0000 0000 0000 0000 803f
00000190: 0000 0000 0000 0000 0000 0000 0000 0000
000001a0: 0000 0000 0000 0000 0000 0000 0000 0000
000001b0: 0000 0000 0000 0000 0000 0000 0000 0000
000001c0: f569 fcbe 0000 803f 0000 0000 0000 0000
000001d0: 0000 0000 0000 0000 0000 0000 0000 0000
000001e0: 0000 0000 0000 0000 0000 0000 0000 0000
000001f0: 0000 0000 0000 0000 0000 0000 0000 0000
00000200: 0000 0000 0000 0000 0000 0000 0000 0000
00000210: 0000 0000 0000 0000 0000 0000 0000 803f
00000220: 0000 0000 0000 0000 0000 0000 0000 0000
00000230: f569 fcbe 0000 803f 0000 0000 0000 0000
00000240: 0000 0000 0000 0000 0000 0000 0000 0000
00000250: 0000 0000 0000 0000 0000 0000 0000 0000
00000260: 0000 0000 0000 0000 0000 0000 0000 0000
00000270: 0000 0000 0000 0000 0000 0000 0000 0000
00000280: 0000 0000 0000 0000 0000 0000 0000 0000
00000290: 0000 0000 0000 0000 0000 0000 0000 803f
000002a0: 0000 0000 0000 0000 0000 0000 0000 0000
000002b0: 0000 0000 0000 0000 0000 0000 0000 0000
000002c0: 0000 0000 0000 0000 0000 0000 0000 0000
000002d0: 0000 0000 0000 0000 0000 0000 0000 0000
000002e0: 0000 0000 0000 0000 0000 0000 0000 0000
000002f0: 0000 0000 0000 0000 0000 0000 0000 0000
00000300: 0000 0000 0000 0000 0000 0000 0000 0000
00000310: 0000 0000 0000 0000 0000 0000 0000 0000
00000320: 0000 0000 0000 0000 0000 0000 0000 0000
00000330: 0000 0000 0000 0000 0000 0000 0000 0000
00000340: 0000 0000 0000 0000 0000 0000 0000 0000
00000350: 0000 0000 0000 0000 0000 0000 0000 0000
00000360: 0000 0000 0000 0000 0000 0000 0000 0000
00000370: 0000 0000 0000 0000 0000 0000 0000 0000
00000380: 0000 0000 0000 0000 0000 0000 0000 0000
00000390: 0000 0000 0000 0000 0000 0000 0000 0000
000003a0: 0000 0000 0000 0000 0000 0000 0000 0000
000003b0: 0000 0000 0000 0000 0000 0000 0000 0000
000003c0: 0000 0000 0000 0000 0000 0000 0000 0000
000003d0: 0000 0000 0000 0000 0000 0000 0000 0000
000003e0: 0000 0000 0000 0000 0000 0000 0000 0000
000003f0: 0000 0000 0000 0000 0000 0000 0000 0000

J_z f4 [34, 11, 16]
0.73994005 -2.0852857 -0.06726728 0.73994005 0.73994005 -0.06726728 0.0 0.0
0.0 0.0 0.0 0.0 0.0 0.0 0.0 0.0
1.4372777 -0.7802365 -1.5194079 0.9444968 0.2053254 -0.28745556 0.0 0.0
0.0 0.0 0.0 0.0 0.0 0.0 0.0 0.0
0.6298898 -0.044992127 -1.8446772 1.0798111 0.1799685 0.0 0.0 0.0
0.0 0.0 0.0 0.0 0.0 0.0 0.0 0.0
-0.78446454 1.1766968 0.0 0.78446454 -1.1766968 0.0 0.0 0.0
0.0 0.0 0.0 0.0 0.0 0.0 0.0 0.0
1.3821895 -0.4319342 0.0 0.0 -0.9502553 0.0 0.0 0.0
0.0 0.0 0.0 0.0 0.0 0.0 0.0 0.0
-1.0 1.0 0.0 0.0 0.0 0.0 0.0 0.0
0.0 0.0 0.0 0.0 0.0 0.0 0.0 0.0
0.0 0.0 0.0 0.0 0.0 0.0 0.0 0.0
0.0 0.0 0.0 0.0 0.0 0.0 0.0 0.0
0.0 0.0 0.0 0.0 0.0 0.0 0.0 0.0
0.0 0.0 0.0 0.0 0.0 0.0 0.0 0.0
0.0 0.0 0.0 0.0 0.0 0.0 0.0 0.0
0.0 0.0 0.0 0.0 0.0 0.0 0.0 0.0
0.0 0.0 0.0 0.0 0.0 0.0 0.0 0.0
0.0 0.0 0.0 0.0 0.0 0.0 0.0 0.0
0.0 0.0 0.0 0.0 0.0 0.0 0.0 0.0
0.0 0.0 0.0 0.0 0.0 0.0 0.0 0.0
0.89043826 0.12720546 -0.38161638 -0.12720546 0.63602734 0.38161638 0.89043826 -1.9080819
1.1448492 -1.653671 0.0 0.0 0.0 0.0 0.0 0.0
-1.307575 -0.055641487 -0.055641487 -0.5564149 1.6970654 0.19474521 0.4451319 -1.5579617
1.196292 0.0 0.0 0.0 0.0 0.0 0.0 0.0
0.0 0.76736575 -0.1770844 0.5312532 1.0034783 -0.885422 -0.1770844 -2.0659847
1.0034783 0.0 0.0 0.0 0.0 0.0 0.0 0.0
0.0 0.38696373 -0.2503883 0.5463017 0.5463017 0.22762573 0.0 -2.3217824
0.8649778 0.0 0.0 0.0 0.0 0.0 0.0 0.0
0.0 -1.1851875 -0.436648 -0.062378287 1.8089703 -0.81091774 0.0 0.0
0.68616116 0.0 0.0 0.0 0.0 0.0 0.0 0.0
00000000: b66c 3d3f 5275 05c0 6dc3 89bd b66c 3d3f
00000010: b66c 3d3f 6dc3 89bd 0000 0000 0000 0000
00000020: 0000 0000 0000 0000 0000 0000 0000 0000
00000030: 0000 0000 0000 0000 0000 0000 0000 0000
00000040: b7f8 b73f 94bd 47bf f57b c2bf 8bca 713f
00000050: d240 523e 602d 93be 0000 0000 0000 0000
00000060: 0000 0000 0000 0000 0000 0000 0000 0000
00000070: 0000 0000 0000 0000 0000 0000 0000 0000
00000080: 7540 213f aa49 38bd 621e ecbf 4037 8a3f
00000090: aa49 383e 0000 0000 0000 0000 0000 0000
000000a0: 0000 0000 0000 0000 0000 0000 0000 0000
000000b0: 0000 0000 0000 0000 0000 0000 0000 0000
000000c0: abd2 48bf 009e 963f 0000 0000 abd2 483f
000000d0: 009e 96bf 0000 0000 0000 0000 0000 0000
000000e0: 0000 0000 0000 0000 0000 0000 0000 0000
000000f0: 0000 0000 0000 0000 0000 0000 0000 0000
00000100: 96eb b03f 7b26 ddbe 0000 0000 0000 0000
00000110: ee43 73bf 0000 0000 0000 0000 0000 0000
00000120: 0000 0000 0000 0000 0000 0000 0000 0000
00000130: 0000 0000 0000 0000 0000 0000 0000 0000
00000140: 0000 80bf 0000 803f 0000 0000 0000 0000
00000150: 0000 0000 0000 0000 0000 0000 0000 0000
00000160: 0000 0000 0000 0000 0000 0000 0000 0000
00000170: 0000 0000 0000 0000 0000 0000 0000 0000
00000180: 0000 0000 0000 0000 0000 0000 0000 0000
00000190: 0000 0000 0000 0000 0000 0000 0000 0000
000001a0: 0000 0000 0000 0000 0000 0000 0000 0000
000001b0: 0000 0000 0000 0000 0000 0000 0000 0000
000001c0: 0000 0000 0000 0000 0000 0000 0000 0000
000001d0: 0000 0000 0000 0000 0000 0000 0000 0000
000001e0: 0000 0000 0000 0000 0000 0000 0000 0000
000001f0: 0000 0000 0000 0000 0000 0000 0000 0000
00000200: 0000 0000 0000 0000 0000 0000 0000 0000
00000210: 0000 0000 0000 0000 0000 0000 0000 0000
00000220: 0000 0000 0000 0000 0000 0000 0000 0000
00000230: 0000 0000 0000 0000 0000 0000 0000 0000
00000240: 0000 0000 0000 0000 0000 0000 0000 0000
00000250: 0000 0000 0000 0000 0000 0000 0000 0000
00000260: 0000 0000 0000 0000 0000 0000 0000 0000
00000270: 0000 0000 0000 0000 0000 0000 0000 0000
00000280: 0000 0000 0000 0000 0000 0000 0000 0000
00000290: 0000 0000 0000 0000 0000 0000 0000 0000
000002a0: 0000 0000 0000 0000 0000 0000 0000 0000
000002b0: 0000 0000 0000 0000 0000 0000 0000 0000
000002c0: c3f3 633f 2642 023e 3963 c3be 2642 02be
000002d0: b0d2 223f 3963 c33e c3f3 633f 073c f4bf
000002e0: 6b8a 923f 7eab d3bf 0000 0000 0000 0000
000002f0: 0000 0000 0000 0000 0000 0000 0000 0000
00000300: 9e5e a7bf 54e8 63bd 54e8 63bd 3571 0ebf
00000310: 7039 d93f 4a6b 473e 54e8 e33e 4a6b c7bf
00000320: 1920 993f 0000 0000 0000 0000 0000 0000
00000330: 0000 0000 0000 0000 0000 0000 0000 0000
00000340: 0000 0000 1572 443f 9d55 35be 3600 083f
00000350: fa71 803f 04ab 62bf 9d55 35be 1839 04c0
00000360: fa71 803f 0000 0000 0000 0000 0000 0000
00000370: 0000 0000 0000 0000 0000 0000 0000 0000
00000380: 0000 0000 1c20 c63e e532 80be 6eda 0b3f
00000390: 6eda 0b3f b816 693e 0000 0000 1598 14c0
000003a0: 2f6f 5d3f 0000 0000 0000 0000 0000 0000
000003b0: 0000 0000 0000 0000 0000 0000 0000 0000
000003c0: 0000 0000 39b4 97bf 5490 dfbe 6080 7fbd
000003d0: 578c e73f 4e98 4fbf 0000 0000 0000 0000
000003e0: 42a8 2f3f 0000 0000 0000 0000 0000 0000
000003f0: 0000 0000 0000 0000 0000 0000 0000 0000

active_mask f4 [34, 11, 16]
1.0 1.0 1.0 1.0 1.0 1.0 0.0 0.0
0.0 0.0 0.0 0.0 0.0 0.0 0.0 0.0
1.0 1.0 1.0 1.0 1.0 1.0 0.0 0.0
0.0 0.0 0.0 0.0 0.0 0.0 0.0 0.0
1.0 1.0 1.0 1.0 1.0 0.0 0.0 0.0
0.0 0.0 0.0 0.0 0.0 0.0 0.0 0.0
1.0 1.0 0.0 1.0 1.0 0.0 0.0 0.0
0.0 0.0 0.0 0.0 0.0 0.0 0.0 0.0
1.0 1.0 0.0 0.0 1.0 0.0 0.0 0.0
0.0 0.0 0.0 0.0 0.0 0.0 0.0 0.0
1.0 1.0 0.0 0.0 0.0 0.0 0.0 0.0
0.0 0.0 0.0 0.0 0.0 0.0 0.0 0.0
0.0 0.0 0.0 0.0 0.0 0.0 0.0 0.0
0.0 0.0 0.0 0.0 0.0 0.0 0.0 0.0
0.0 0.0 0.0 0.0 0.0 0.0 0.0 0.0
0.0 0.0 0.0 0.0 0.0 0.0 0.0 0.0
0.0 0.0 0.0 0.0 0.0 0.0 0.0 0.0
0.0 0.0 0.0 0.0 0.0 0.0 0.0 0.0
0.0 0.0 0.0 0.0 0.0 0.0 0.0 0.0
0.0 0.0 0.0 0.0 0.0 0.0 0.0 0.0
0.0 0.0 0.0 0.0 0.0 0.0 0.0 0.0
0.0 0.0 0.0 0.0 0.0 0.0 0.0 0.0
1.0 1.0 1.0 1.0 1.0 1.0 1.0 1.0
1.0 1.0 0.0 0.0 0.0 0.0 0.0 0.0
1.0 1.0 1.0 1.0 1.0 1.0 1.0 1.0
1.0 0.0 0.0 0.0 0.0 0.0 0.0 0.0
0.0 1.0 1.0 1.0 1.0 1.0 1.0 1.0
1.0 0.0 0.0 0.0 0.0 0.0 0.0 0.0
0.0 1.0 1.0 1.0 1.0 1.0 0.0 1.0
1.0 0.0 0.0 0.0 0.0 0.0 0.0 0.0
0.0 1.0 1.0 1.0 1.0 1.0 0.0 0.0
1.0 0.0 0.0 0.0 0.0 0.0 0.0 0.0
00000000: 0000 803f 0000 803f 0000 803f 0000 803f
00000010: 0000 803f 0000 803f 0000 0000 0000 0000
00000020: 0000 0000 0000 0000 0000 0000 0000 0000
00000030: 0000 0000 0000 0000 0000 0000 0000 0000
00000040: 0000 803f 0000 803f 0000 803f 0000 803f
00000050: 0000 803f 0000 803f 0000 0000 0000 0000
00000060: 0000 0000 0000 0000 0000 0000 0000 0000
00000070: 0000 0000 0000 0000 0000 0000 0000 0000
00000080: 0000 803f 0000 803f 0000 803f 0000 803f
00000090: 0000 803f 0000 0000 0000 0000 0000 0000
000000a0: 0000 0000 0000 0000 0000 0000 0000 0000
000000b0: 0000 0000 0000 0000 0000 0000 0000 0000
000000c0: 0000 803f 0000 803f 0000 0000 0000 803f
000000d0: 0000 803f 0000 0000 0000 0000 0000 0000
000000e0: 0000 0000 0000 0000 0000 0000 0000 0000
000000f0: 0000 0000 0000 0000 0000 0000 0000 0000
00000100: 0000 803f 0000 803f 0000 0000 0000 0000
00000110: 0000 803f 0000 0000 0000 0000 0000 0000
00000120: 0000 0000 0000 0000 0000 0000 0000 0000
00000130: 0000 0000 0000 0000 0000 0000 0000 0000
00000140: 0000 803f 0000 803f 0000 0000 0000 0000
00000150: 0000 0000 0000 0000 0000 0000 0000 0000
00000160: 0000 0000 0000 0000 0000 0000 0000 0000
00000170: 0000 0000 0000 0000 0000 0000 0000 0000
00000180: 0000 0000 0000 0000 0000 0000 0000 0000
00000190: 0000 0000 0000 0000 0000 0000 0000 0000
000001a0: 0000 0000 0000 0000 0000 0000 0000 0000
000001b0: 0000 0000 0000 0000 0000 0000 0000 0000
000001c0: 0000 0000 0000 0000 0000 0000 0000 0000
000001d0: 0000 0000 0000 0000 0000 0000 0000 0000
000001e0: 0000 0000 0000 0000 0000 0000 0000 0000
000001f0: 0000 0000 0000 0000 0000 0000 0000 0000
00000200: 0000 0000 0000 0000 0000 0000 0000 0000
00000210: 0000 0000 0000 0000 0000 0000 0000 0000
00000220: 0000 0000 0000 0000 0000 0000 0000 0000
00000230: 0000 0000 0000 0000 0000 0000 0000 0000
00000240: 0000 0000 0000 0000 0000 0000 0000 0000
00000250: 0000 0000 0000 0000 0000 0000 0000 0000
00000260: 0000 0000 0000 0000 0000 0000 0000 0000
00000270: 0000 0000 0000 0000 0000 0000 0000 0000
00000280: 0000 0000 0000 0000 0000 0000 0000 0000
00000290: 0000 0000 0000 0000 0000 0000 0000 0000
000002a0: 0000 0000 0000 0000 0000 0000 0000 0000
000002b0: 0000 0000 0000 0000 0000 0000 0000 0000
000002c0: 0000 803f 0000 803f 0000 803f 0000 803f
000002d0: 0000 803f 0000 803f 0000 803f 0000 803f
000002e0: 0000 803f 0000 803f 0000 0000 0000 0000
000002f0: 0000 0000 0000 0000 0000 0000 0000 0000
00000300: 0000 803f 0000 803f 0000 803f 0000 803f
00000310: 0000 803f 0000 803f 0000 803f 0000 803f
00000320: 0000 803f 0000 0000 0000 0000 0000 0000
00000330: 0000 0000 0000 0000 0000 0000 0000 0000
00000340: 0000 0000 0000 803f 0000 803f 0000 803f
00000350: 0000 803f 0000 803f 0000 803f 0000 803f
00000360: 0000 803f 0000 0000 0000 0000 0000 0000
00000370: 0000 0000 0000 0000 0000 0000 0000 0000
00000380: 0000 0000 0000 803f 0000 803f 0000 803f
00000390: 0000 803f 0000 803f 0000 0000 0000 803f
000003a0: 0000 803f 0000 0000 0000 0000 0000 0000
000003b0: 0000 0000 0000 0000 0000 0000 0000 0000
000003c0: 0000 0000 0000 803f 0000 803f 0000 803f
000003d0: 0000 803f 0000 803f 0000 0000 0000 0000
000003e0: 0000 803f 0000 0000 0000 0000 0000 0000
000003f0: 0000 0000 0000 0000 0000 0000 0000 0000

exp_avg f4 [28]
0.16801089 0.34898978 0.8063986 0.0034637493 -0.06380416 0.005596665 -0.1298941 0.105114155
0.014107432 -0.016595948 -0.0043183654 0.046224628 -0.00074512546 -0.00094630336 0.0053332164 -0.084970355
-0.008149392 -0.006696149 0.0030619653 -0.015097986 0.004089837 -0.042052723 -0.02109996 -0.20744924
0.037537 0.016904185 0.009148515 -0.4503684
00000000: 0c0b 2c3e caae b23e 2370 4e3f 1200 633b
00000010: c1ab 82bd 3b64 b73b f502 05be 1746 d73d
00000020: dc22 673c 3af4 87bc 1381 8dbb 0956 3d3d
00000030: 8654 43ba 5811 78ba 43c2 ae3b f004 aebd
00000040: 0785 05bc 5e6b dbbb 41ab 483b 8b5d 77bc
00000050: 0a04 863b 7a3f 2cbd d3d9 acbc 936d 54be
00000060: 66c0 193d a57a 8a3c a7e3 153c b096 e6be

exp_avg_sq f4 [28]
10.391172 1.6515627 3.077106 0.0007436139 1.3376695 0.0032653797 0.40489382 0.17929451
0.019516457 0.20228368 0.0011754321 0.05793433 0.00033830781 2.7518168e-05 0.0030274529 0.6534012
0.0032040498 0.0010384755 0.14808631 0.23754634 0.015644532 0.009673831 0.005277813 1.4043756
0.37293473 0.021317324 0.026415626 2.400636
00000000: 3e42 2641 6866 d33f 4eef 4440 16ef 423a
00000010: c138 ab3f fbff 553b 3e4e cf3e fb98 373e
00000020: fae0 9f3c 7423 4f3e f510 9a3a 8c4c 6d3d
00000030: e85e b139 d1d6 e637 3b68 463b 4d45 273f
00000040: 09fb 513b 751d 883a f0a3 173e 593f 733e
00000050: f628 803c fd7e 1e3c 81f1 ac3b 94c2 b33f
00000060: 4df1 be3e aba1 ae3c 9565 d83c 05a4 1940

exp_avg f4 [28]
0.02794084 0.022945523 -0.032184992 0.00862937 0.07219337 -0.0134144025 0.11931874 -0.11042281
-0.017108664 0.008753181 -0.0044502285 -0.030492557 3.1252315e-05 -0.0010887602 0.00922732 -0.04181877
0.007925706 0.005986548 0.071781844 0.006338949 0.00085300853 -0.011207803 -0.0118599795 0.073337905
0.041640818 -0.02156241 -0.0035191113 0.055217598
00000000: 30e4 e43c 40f8 bb3c 69d4 03bd 3362 0d3c
00000010: 1eda 933d 15c8 5bbc 625d f43d 5b25 e2bd
00000020: 7827 8cbc 8169 0f3c 39d3 91bb 87cb f9bc
00000030: eb14 0338 bbb4 8eba 2f2e 173c 294a 2bbd
00000040: d2da 013c ce2a c43b 5c02 933d f5b6 cf3b
00000050: 6f9c 5f3a efa0 37bc 5c50 42bc 2f32 963d
00000060: 908f 2a3d a7a3 b0bc e4a0 66bb d92b 623d

exp_avg_sq f4 [28]
0.14819111 0.057431787 0.070104346 0.00092334027 0.04631684 0.0034140418 0.051226776 0.06676887
0.03199047 0.04406829 0.001979587 0.05304198 0.0011847871 4.915781e-05 0.0027834983 0.045924824
0.003840274 0.0013078575 0.046531912 0.046905104 0.043797832 0.006994041 0.0068675354 0.05907773
0.05065584 0.030113116 0.0242235 0.058878534
00000000: 69bf 173e 983d 6b3d de92 8f3d 510c 723a
00000010: bab6 3d3d 1ebe 5f3b 2bd3 513d 1ebe 883d
00000020: 7008 033d f480 343d f5bb 013b 8c42 593d
00000030: dc4a 9b3a cc2e 4e38 5a6b 363b ab1b 3c3d
00000040: 1bad 7b3b 6a6c ab3a 3f98 3e3d 911f 403d
00000050: 5b65 333d 452e e53b 1009 e13b 7dfb 713d
00000060: 807c 4f3d c8af f63c 5d70 c63c 9e2a 713d

exp_avg f4 [60]
0.17300098 -0.017274782 0.017680647 0.005224925 0.00568579 0.011243657 0.07714892 -0.007928228
-0.041142218 -0.14316644 0.005596665 -0.33599237 0.036112864 -0.037274785 -0.039639972 0.036559105
-0.0005467038 -0.012262088 0.06817084 -0.036993217 -0.00066625304 0.09091368 0.0036296772 0.22117776
-0.20761056 0.105114155 0.014793846 0.0039931377 -0.26288754 4.210745e-10 0.00045220423 0.01693321
-0.12921719 -0.0060558175 -0.07519426 -0.03472051 0.01446843 0.14369376 0.0104448525 -0.0043490515
0.035814065 -0.032300666 -0.028277427 -0.18953821 0.04223764 0.20228513 0.076475054 0.010060725
0.18846051 -0.30884054 0.1737425 0.1339748 -0.041649826 -0.011604794 0.0010851477 0.039765578
0.016904185 -0.018971777 0.036158714 0.024213975
00000000: 2b27 313e d883 8dbc 01d7 903c d935 ab3b
00000010: dd4f ba3b 5137 383c 4100 9e3d 66e5 01bc
00000020: be84 28bd 399a 12be 3b64 b73b 3107 acbe
00000030: 15eb 133d 72ad 18bd 865d 22bd 00bf 153d
00000040: ac50 0fba ede6 48bc 279d 8b3d 3386 17bd
00000050: 7ca7 2eba f430 ba3d e1df 6d3b 6c7c 623e
00000060: dd97 54be 1746 d73d e361 723c ded8 823b
00000070: 3299 86be f87c e72f d315 ed39 84b7 8a3c
00000080: 8351 04be e16f c6bb 73ff 99bd 1837 0ebd
00000090: fe0c 6d3c 7524 133e e320 2b3c 7d82 8ebb
000000a0: c5b1 123d b44d 04bd 10a6 e7bc 4e16 42be
000000b0: 6001 2d3d d523 4f3e f49e 9c3d bdd5 243c
000000c0: cbfb 403e 5920 9ebe 8ee9 313e b130 093e
000000d0: 0299 2abd 0922 3ebc 843b 8e3a 3be1 223d
000000e0: a57a 8a3c b36a 9bbc 291b 143d 635c c63c

exp_avg_sq f4 [60]
0.5474088 0.07507796 0.021859473 0.010759562 0.02409276 0.0003492991 0.08303225 0.19472261
0.108086444 0.82628924 0.0032653797 0.50767463 0.02217637 0.0146212755 0.34795225 0.0022287308
0.0006641135 0.56633294 0.07213618 0.11595635 0.004486797 0.12833934 0.0020808948 0.68662935
0.27003995 0.17929451 0.015525491 0.0018178528 1.0432537 6.1856165e-09 2.0068033e-05 0.17707641
0.41444656 0.0010211226 0.127332 0.022592995 0.055333823 0.1522483 0.28688052 0.0009010902
0.033590812 0.014620341 0.28262624 0.36967784 0.09328111 0.21802416 0.030540977 0.8741431
0.6800324 0.43054947 0.4641667 0.27267253 0.03525473 0.0034875032 0.00075474783 0.09147931
0.021317324 0.36209494 0.2197998 0.027562354
00000000: fc22 0c3f 79c2 993d a312 b33c e048 303c
00000010: 2e5e c53c 2222 b739 d00c aa3d 5d65 473e
00000020: 6d5c dd3d b187 533f fbff 553b f7f6 013f
00000030: 38ab b53c 138e 6f3c cc26 b23e e60f 123b
00000040: e717 2e3a 32fb 103f 22bc 933d 867a ed3d
00000050: fb05 933b 636b 033e 9f5f 083b f1c6 2f3f
00000060: ad42 8a3e fb98 373e a15e 7e3c 0545 ee3a
00000070: 5689 853f 4289 d431 c657 a837 8553 353e
00000080: 5732 d43e 30d7 853a 5263 023e f214 b93c
00000090: b8a5 623d fae6 1b3e 01e2 923e 2437 6c3a
000000a0: 8596 093d 288a 6f3c 63b4 903e 6a46 bd3e
000000b0: 2b0a bf3d ba41 5f3e 1231 fa3c d8c7 5f3f
000000c0: 9a16 2e3f fb70 dc3e 42a7 ed3e bc9b 8b3e
000000d0: 4467 103d 988e 643b 45da 453a 8159 bb3d
000000e0: aba1 ae3c 8264 b93e 3313 613e 72ca e13c
